{"format": "layers-model", "generatedBy": "keras v2.3.1", "convertedBy": "TensorFlow.js Converter v1.2.10.1", "modelTopology": {"keras_version": "2.3.1", "backend": "tensorflow", "model_config": {"class_name": "Model", "config": {"name": "inception_resnet_v1", "layers": [{"name": "input_25", "class_name": "InputLayer", "config": {"batch_input_shape": [null, 160, 160, 3], "dtype": "float32", "sparse": false, "name": "input_25"}, "inbound_nodes": []}, {"name": "Conv2d_1a_3x3", "class_name": "Conv2D", "config": {"name": "Conv2d_1a_3x3", "trainable": true, "dtype": "float32", "filters": 32, "kernel_size": [3, 3], "strides": [2, 2], "padding": "valid", "data_format": "channels_last", "dilation_rate": [1, 1], "activation": "linear", "use_bias": false, "kernel_initializer": {"class_name": "VarianceScaling", "config": {"scale": 1.0, "mode": "fan_avg", "distribution": "uniform", "seed": null}}, "bias_initializer": {"class_name": "Zeros", "config": {}}, "kernel_regularizer": null, "bias_regularizer": null, "activity_regularizer": null, "kernel_constraint": null, "bias_constraint": null}, "inbound_nodes": [[["input_25", 0, 0, {}]]]}, {"name": "Conv2d_1a_3x3_BatchNorm", "class_name": "BatchNormalization", "config": {"name": "Conv2d_1a_3x3_BatchNorm", "trainable": true, "dtype": "float32", "axis": 3, "momentum": 0.995, "epsilon": 0.001, "center": true, "scale": false, "beta_initializer": {"class_name": "Zeros", "config": {}}, "gamma_initializer": {"class_name": "Ones", "config": {}}, "moving_mean_initializer": {"class_name": "Zeros", "config": {}}, "moving_variance_initializer": {"class_name": "Ones", "config": {}}, "beta_regularizer": null, "gamma_regularizer": null, "beta_constraint": null, "gamma_constraint": null}, "inbound_nodes": [[["Conv2d_1a_3x3", 0, 0, {}]]]}, {"name": "Conv2d_1a_3x3_Activation", "class_name": "Activation", "config": {"name": "Conv2d_1a_3x3_Activation", "trainable": true, "dtype": "float32", "activation": "relu"}, "inbound_nodes": [[["Conv2d_1a_3x3_BatchNorm", 0, 0, {}]]]}, {"name": "Conv2d_2a_3x3", "class_name": "Conv2D", "config": {"name": "Conv2d_2a_3x3", "trainable": true, "dtype": "float32", "filters": 32, "kernel_size": [3, 3], "strides": [1, 1], "padding": "valid", "data_format": "channels_last", "dilation_rate": [1, 1], "activation": "linear", "use_bias": false, "kernel_initializer": {"class_name": "VarianceScaling", "config": {"scale": 1.0, "mode": "fan_avg", "distribution": "uniform", "seed": null}}, "bias_initializer": {"class_name": "Zeros", "config": {}}, "kernel_regularizer": null, "bias_regularizer": null, "activity_regularizer": null, "kernel_constraint": null, "bias_constraint": null}, "inbound_nodes": [[["Conv2d_1a_3x3_Activation", 0, 0, {}]]]}, {"name": "Conv2d_2a_3x3_BatchNorm", "class_name": "BatchNormalization", "config": {"name": "Conv2d_2a_3x3_BatchNorm", "trainable": true, "dtype": "float32", "axis": 3, "momentum": 0.995, "epsilon": 0.001, "center": true, "scale": false, "beta_initializer": {"class_name": "Zeros", "config": {}}, "gamma_initializer": {"class_name": "Ones", "config": {}}, "moving_mean_initializer": {"class_name": "Zeros", "config": {}}, "moving_variance_initializer": {"class_name": "Ones", "config": {}}, "beta_regularizer": null, "gamma_regularizer": null, "beta_constraint": null, "gamma_constraint": null}, "inbound_nodes": [[["Conv2d_2a_3x3", 0, 0, {}]]]}, {"name": "Conv2d_2a_3x3_Activation", "class_name": "Activation", "config": {"name": "Conv2d_2a_3x3_Activation", "trainable": true, "dtype": "float32", "activation": "relu"}, "inbound_nodes": [[["Conv2d_2a_3x3_BatchNorm", 0, 0, {}]]]}, {"name": "Conv2d_2b_3x3", "class_name": "Conv2D", "config": {"name": "Conv2d_2b_3x3", "trainable": true, "dtype": "float32", "filters": 64, "kernel_size": [3, 3], "strides": [1, 1], "padding": "same", "data_format": "channels_last", "dilation_rate": [1, 1], "activation": "linear", "use_bias": false, "kernel_initializer": {"class_name": "VarianceScaling", "config": {"scale": 1.0, "mode": "fan_avg", "distribution": "uniform", "seed": null}}, "bias_initializer": {"class_name": "Zeros", "config": {}}, "kernel_regularizer": null, "bias_regularizer": null, "activity_regularizer": null, "kernel_constraint": null, "bias_constraint": null}, "inbound_nodes": [[["Conv2d_2a_3x3_Activation", 0, 0, {}]]]}, {"name": "Conv2d_2b_3x3_BatchNorm", "class_name": "BatchNormalization", "config": {"name": "Conv2d_2b_3x3_BatchNorm", "trainable": true, "dtype": "float32", "axis": 3, "momentum": 0.995, "epsilon": 0.001, "center": true, "scale": false, "beta_initializer": {"class_name": "Zeros", "config": {}}, "gamma_initializer": {"class_name": "Ones", "config": {}}, "moving_mean_initializer": {"class_name": "Zeros", "config": {}}, "moving_variance_initializer": {"class_name": "Ones", "config": {}}, "beta_regularizer": null, "gamma_regularizer": null, "beta_constraint": null, "gamma_constraint": null}, "inbound_nodes": [[["Conv2d_2b_3x3", 0, 0, {}]]]}, {"name": "Conv2d_2b_3x3_Activation", "class_name": "Activation", "config": {"name": "Conv2d_2b_3x3_Activation", "trainable": true, "dtype": "float32", "activation": "relu"}, "inbound_nodes": [[["Conv2d_2b_3x3_BatchNorm", 0, 0, {}]]]}, {"name": "MaxPool_3a_3x3", "class_name": "MaxPooling2D", "config": {"name": "MaxPool_3a_3x3", "trainable": true, "dtype": "float32", "pool_size": [3, 3], "padding": "valid", "strides": [2, 2], "data_format": "channels_last"}, "inbound_nodes": [[["Conv2d_2b_3x3_Activation", 0, 0, {}]]]}, {"name": "Conv2d_3b_1x1", "class_name": "Conv2D", "config": {"name": "Conv2d_3b_1x1", "trainable": true, "dtype": "float32", "filters": 80, "kernel_size": [1, 1], "strides": [1, 1], "padding": "valid", "data_format": "channels_last", "dilation_rate": [1, 1], "activation": "linear", "use_bias": false, "kernel_initializer": {"class_name": "VarianceScaling", "config": {"scale": 1.0, "mode": "fan_avg", "distribution": "uniform", "seed": null}}, "bias_initializer": {"class_name": "Zeros", "config": {}}, "kernel_regularizer": null, "bias_regularizer": null, "activity_regularizer": null, "kernel_constraint": null, "bias_constraint": null}, "inbound_nodes": [[["MaxPool_3a_3x3", 0, 0, {}]]]}, {"name": "Conv2d_3b_1x1_BatchNorm", "class_name": "BatchNormalization", "config": {"name": "Conv2d_3b_1x1_BatchNorm", "trainable": true, "dtype": "float32", "axis": 3, "momentum": 0.995, "epsilon": 0.001, "center": true, "scale": false, "beta_initializer": {"class_name": "Zeros", "config": {}}, "gamma_initializer": {"class_name": "Ones", "config": {}}, "moving_mean_initializer": {"class_name": "Zeros", "config": {}}, "moving_variance_initializer": {"class_name": "Ones", "config": {}}, "beta_regularizer": null, "gamma_regularizer": null, "beta_constraint": null, "gamma_constraint": null}, "inbound_nodes": [[["Conv2d_3b_1x1", 0, 0, {}]]]}, {"name": "Conv2d_3b_1x1_Activation", "class_name": "Activation", "config": {"name": "Conv2d_3b_1x1_Activation", "trainable": true, "dtype": "float32", "activation": "relu"}, "inbound_nodes": [[["Conv2d_3b_1x1_BatchNorm", 0, 0, {}]]]}, {"name": "Conv2d_4a_3x3", "class_name": "Conv2D", "config": {"name": "Conv2d_4a_3x3", "trainable": true, "dtype": "float32", "filters": 192, "kernel_size": [3, 3], "strides": [1, 1], "padding": "valid", "data_format": "channels_last", "dilation_rate": [1, 1], "activation": "linear", "use_bias": false, "kernel_initializer": {"class_name": "VarianceScaling", "config": {"scale": 1.0, "mode": "fan_avg", "distribution": "uniform", "seed": null}}, "bias_initializer": {"class_name": "Zeros", "config": {}}, "kernel_regularizer": null, "bias_regularizer": null, "activity_regularizer": null, "kernel_constraint": null, "bias_constraint": null}, "inbound_nodes": [[["Conv2d_3b_1x1_Activation", 0, 0, {}]]]}, {"name": "Conv2d_4a_3x3_BatchNorm", "class_name": "BatchNormalization", "config": {"name": "Conv2d_4a_3x3_BatchNorm", "trainable": true, "dtype": "float32", "axis": 3, "momentum": 0.995, "epsilon": 0.001, "center": true, "scale": false, "beta_initializer": {"class_name": "Zeros", "config": {}}, "gamma_initializer": {"class_name": "Ones", "config": {}}, "moving_mean_initializer": {"class_name": "Zeros", "config": {}}, "moving_variance_initializer": {"class_name": "Ones", "config": {}}, "beta_regularizer": null, "gamma_regularizer": null, "beta_constraint": null, "gamma_constraint": null}, "inbound_nodes": [[["Conv2d_4a_3x3", 0, 0, {}]]]}, {"name": "Conv2d_4a_3x3_Activation", "class_name": "Activation", "config": {"name": "Conv2d_4a_3x3_Activation", "trainable": true, "dtype": "float32", "activation": "relu"}, "inbound_nodes": [[["Conv2d_4a_3x3_BatchNorm", 0, 0, {}]]]}, {"name": "Conv2d_4b_3x3", "class_name": "Conv2D", "config": {"name": "Conv2d_4b_3x3", "trainable": true, "dtype": "float32", "filters": 256, "kernel_size": [3, 3], "strides": [2, 2], "padding": "valid", "data_format": "channels_last", "dilation_rate": [1, 1], "activation": "linear", "use_bias": false, "kernel_initializer": {"class_name": "VarianceScaling", "config": {"scale": 1.0, "mode": "fan_avg", "distribution": "uniform", "seed": null}}, "bias_initializer": {"class_name": "Zeros", "config": {}}, "kernel_regularizer": null, "bias_regularizer": null, "activity_regularizer": null, "kernel_constraint": null, "bias_constraint": null}, "inbound_nodes": [[["Conv2d_4a_3x3_Activation", 0, 0, {}]]]}, {"name": "Conv2d_4b_3x3_BatchNorm", "class_name": "BatchNormalization", "config": {"name": "Conv2d_4b_3x3_BatchNorm", "trainable": true, "dtype": "float32", "axis": 3, "momentum": 0.995, "epsilon": 0.001, "center": true, "scale": false, "beta_initializer": {"class_name": "Zeros", "config": {}}, "gamma_initializer": {"class_name": "Ones", "config": {}}, "moving_mean_initializer": {"class_name": "Zeros", "config": {}}, "moving_variance_initializer": {"class_name": "Ones", "config": {}}, "beta_regularizer": null, "gamma_regularizer": null, "beta_constraint": null, "gamma_constraint": null}, "inbound_nodes": [[["Conv2d_4b_3x3", 0, 0, {}]]]}, {"name": "Conv2d_4b_3x3_Activation", "class_name": "Activation", "config": {"name": "Conv2d_4b_3x3_Activation", "trainable": true, "dtype": "float32", "activation": "relu"}, "inbound_nodes": [[["Conv2d_4b_3x3_BatchNorm", 0, 0, {}]]]}, {"name": "Block35_1_Branch_2_Conv2d_0a_1x1", "class_name": "Conv2D", "config": {"name": "Block35_1_Branch_2_Conv2d_0a_1x1", "trainable": true, "dtype": "float32", "filters": 32, "kernel_size": [1, 1], "strides": [1, 1], "padding": "same", "data_format": "channels_last", "dilation_rate": [1, 1], "activation": "linear", "use_bias": false, "kernel_initializer": {"class_name": "VarianceScaling", "config": {"scale": 1.0, "mode": "fan_avg", "distribution": "uniform", "seed": null}}, "bias_initializer": {"class_name": "Zeros", "config": {}}, "kernel_regularizer": null, "bias_regularizer": null, "activity_regularizer": null, "kernel_constraint": null, "bias_constraint": null}, "inbound_nodes": [[["Conv2d_4b_3x3_Activation", 0, 0, {}]]]}, {"name": "Block35_1_Branch_2_Conv2d_0a_1x1_BatchNorm", "class_name": "BatchNormalization", "config": {"name": "Block35_1_Branch_2_Conv2d_0a_1x1_BatchNorm", "trainable": true, "dtype": "float32", "axis": 3, "momentum": 0.995, "epsilon": 0.001, "center": true, "scale": false, "beta_initializer": {"class_name": "Zeros", "config": {}}, "gamma_initializer": {"class_name": "Ones", "config": {}}, "moving_mean_initializer": {"class_name": "Zeros", "config": {}}, "moving_variance_initializer": {"class_name": "Ones", "config": {}}, "beta_regularizer": null, "gamma_regularizer": null, "beta_constraint": null, "gamma_constraint": null}, "inbound_nodes": [[["Block35_1_Branch_2_Conv2d_0a_1x1", 0, 0, {}]]]}, {"name": "Block35_1_Branch_2_Conv2d_0a_1x1_Activation", "class_name": "Activation", "config": {"name": "Block35_1_Branch_2_Conv2d_0a_1x1_Activation", "trainable": true, "dtype": "float32", "activation": "relu"}, "inbound_nodes": [[["Block35_1_Branch_2_Conv2d_0a_1x1_BatchNorm", 0, 0, {}]]]}, {"name": "Block35_1_Branch_1_Conv2d_0a_1x1", "class_name": "Conv2D", "config": {"name": "Block35_1_Branch_1_Conv2d_0a_1x1", "trainable": true, "dtype": "float32", "filters": 32, "kernel_size": [1, 1], "strides": [1, 1], "padding": "same", "data_format": "channels_last", "dilation_rate": [1, 1], "activation": "linear", "use_bias": false, "kernel_initializer": {"class_name": "VarianceScaling", "config": {"scale": 1.0, "mode": "fan_avg", "distribution": "uniform", "seed": null}}, "bias_initializer": {"class_name": "Zeros", "config": {}}, "kernel_regularizer": null, "bias_regularizer": null, "activity_regularizer": null, "kernel_constraint": null, "bias_constraint": null}, "inbound_nodes": [[["Conv2d_4b_3x3_Activation", 0, 0, {}]]]}, {"name": "Block35_1_Branch_2_Conv2d_0b_3x3", "class_name": "Conv2D", "config": {"name": "Block35_1_Branch_2_Conv2d_0b_3x3", "trainable": true, "dtype": "float32", "filters": 32, "kernel_size": [3, 3], "strides": [1, 1], "padding": "same", "data_format": "channels_last", "dilation_rate": [1, 1], "activation": "linear", "use_bias": false, "kernel_initializer": {"class_name": "VarianceScaling", "config": {"scale": 1.0, "mode": "fan_avg", "distribution": "uniform", "seed": null}}, "bias_initializer": {"class_name": "Zeros", "config": {}}, "kernel_regularizer": null, "bias_regularizer": null, "activity_regularizer": null, "kernel_constraint": null, "bias_constraint": null}, "inbound_nodes": [[["Block35_1_Branch_2_Conv2d_0a_1x1_Activation", 0, 0, {}]]]}, {"name": "Block35_1_Branch_1_Conv2d_0a_1x1_BatchNorm", "class_name": "BatchNormalization", "config": {"name": "Block35_1_Branch_1_Conv2d_0a_1x1_BatchNorm", "trainable": true, "dtype": "float32", "axis": 3, "momentum": 0.995, "epsilon": 0.001, "center": true, "scale": false, "beta_initializer": {"class_name": "Zeros", "config": {}}, "gamma_initializer": {"class_name": "Ones", "config": {}}, "moving_mean_initializer": {"class_name": "Zeros", "config": {}}, "moving_variance_initializer": {"class_name": "Ones", "config": {}}, "beta_regularizer": null, "gamma_regularizer": null, "beta_constraint": null, "gamma_constraint": null}, "inbound_nodes": [[["Block35_1_Branch_1_Conv2d_0a_1x1", 0, 0, {}]]]}, {"name": "Block35_1_Branch_2_Conv2d_0b_3x3_BatchNorm", "class_name": "BatchNormalization", "config": {"name": "Block35_1_Branch_2_Conv2d_0b_3x3_BatchNorm", "trainable": true, "dtype": "float32", "axis": 3, "momentum": 0.995, "epsilon": 0.001, "center": true, "scale": false, "beta_initializer": {"class_name": "Zeros", "config": {}}, "gamma_initializer": {"class_name": "Ones", "config": {}}, "moving_mean_initializer": {"class_name": "Zeros", "config": {}}, "moving_variance_initializer": {"class_name": "Ones", "config": {}}, "beta_regularizer": null, "gamma_regularizer": null, "beta_constraint": null, "gamma_constraint": null}, "inbound_nodes": [[["Block35_1_Branch_2_Conv2d_0b_3x3", 0, 0, {}]]]}, {"name": "Block35_1_Branch_1_Conv2d_0a_1x1_Activation", "class_name": "Activation", "config": {"name": "Block35_1_Branch_1_Conv2d_0a_1x1_Activation", "trainable": true, "dtype": "float32", "activation": "relu"}, "inbound_nodes": [[["Block35_1_Branch_1_Conv2d_0a_1x1_BatchNorm", 0, 0, {}]]]}, {"name": "Block35_1_Branch_2_Conv2d_0b_3x3_Activation", "class_name": "Activation", "config": {"name": "Block35_1_Branch_2_Conv2d_0b_3x3_Activation", "trainable": true, "dtype": "float32", "activation": "relu"}, "inbound_nodes": [[["Block35_1_Branch_2_Conv2d_0b_3x3_BatchNorm", 0, 0, {}]]]}, {"name": "Block35_1_Branch_0_Conv2d_1x1", "class_name": "Conv2D", "config": {"name": "Block35_1_Branch_0_Conv2d_1x1", "trainable": true, "dtype": "float32", "filters": 32, "kernel_size": [1, 1], "strides": [1, 1], "padding": "same", "data_format": "channels_last", "dilation_rate": [1, 1], "activation": "linear", "use_bias": false, "kernel_initializer": {"class_name": "VarianceScaling", "config": {"scale": 1.0, "mode": "fan_avg", "distribution": "uniform", "seed": null}}, "bias_initializer": {"class_name": "Zeros", "config": {}}, "kernel_regularizer": null, "bias_regularizer": null, "activity_regularizer": null, "kernel_constraint": null, "bias_constraint": null}, "inbound_nodes": [[["Conv2d_4b_3x3_Activation", 0, 0, {}]]]}, {"name": "Block35_1_Branch_1_Conv2d_0b_3x3", "class_name": "Conv2D", "config": {"name": "Block35_1_Branch_1_Conv2d_0b_3x3", "trainable": true, "dtype": "float32", "filters": 32, "kernel_size": [3, 3], "strides": [1, 1], "padding": "same", "data_format": "channels_last", "dilation_rate": [1, 1], "activation": "linear", "use_bias": false, "kernel_initializer": {"class_name": "VarianceScaling", "config": {"scale": 1.0, "mode": "fan_avg", "distribution": "uniform", "seed": null}}, "bias_initializer": {"class_name": "Zeros", "config": {}}, "kernel_regularizer": null, "bias_regularizer": null, "activity_regularizer": null, "kernel_constraint": null, "bias_constraint": null}, "inbound_nodes": [[["Block35_1_Branch_1_Conv2d_0a_1x1_Activation", 0, 0, {}]]]}, {"name": "Block35_1_Branch_2_Conv2d_0c_3x3", "class_name": "Conv2D", "config": {"name": "Block35_1_Branch_2_Conv2d_0c_3x3", "trainable": true, "dtype": "float32", "filters": 32, "kernel_size": [3, 3], "strides": [1, 1], "padding": "same", "data_format": "channels_last", "dilation_rate": [1, 1], "activation": "linear", "use_bias": false, "kernel_initializer": {"class_name": "VarianceScaling", "config": {"scale": 1.0, "mode": "fan_avg", "distribution": "uniform", "seed": null}}, "bias_initializer": {"class_name": "Zeros", "config": {}}, "kernel_regularizer": null, "bias_regularizer": null, "activity_regularizer": null, "kernel_constraint": null, "bias_constraint": null}, "inbound_nodes": [[["Block35_1_Branch_2_Conv2d_0b_3x3_Activation", 0, 0, {}]]]}, {"name": "Block35_1_Branch_0_Conv2d_1x1_BatchNorm", "class_name": "BatchNormalization", "config": {"name": "Block35_1_Branch_0_Conv2d_1x1_BatchNorm", "trainable": true, "dtype": "float32", "axis": 3, "momentum": 0.995, "epsilon": 0.001, "center": true, "scale": false, "beta_initializer": {"class_name": "Zeros", "config": {}}, "gamma_initializer": {"class_name": "Ones", "config": {}}, "moving_mean_initializer": {"class_name": "Zeros", "config": {}}, "moving_variance_initializer": {"class_name": "Ones", "config": {}}, "beta_regularizer": null, "gamma_regularizer": null, "beta_constraint": null, "gamma_constraint": null}, "inbound_nodes": [[["Block35_1_Branch_0_Conv2d_1x1", 0, 0, {}]]]}, {"name": "Block35_1_Branch_1_Conv2d_0b_3x3_BatchNorm", "class_name": "BatchNormalization", "config": {"name": "Block35_1_Branch_1_Conv2d_0b_3x3_BatchNorm", "trainable": true, "dtype": "float32", "axis": 3, "momentum": 0.995, "epsilon": 0.001, "center": true, "scale": false, "beta_initializer": {"class_name": "Zeros", "config": {}}, "gamma_initializer": {"class_name": "Ones", "config": {}}, "moving_mean_initializer": {"class_name": "Zeros", "config": {}}, "moving_variance_initializer": {"class_name": "Ones", "config": {}}, "beta_regularizer": null, "gamma_regularizer": null, "beta_constraint": null, "gamma_constraint": null}, "inbound_nodes": [[["Block35_1_Branch_1_Conv2d_0b_3x3", 0, 0, {}]]]}, {"name": "Block35_1_Branch_2_Conv2d_0c_3x3_BatchNorm", "class_name": "BatchNormalization", "config": {"name": "Block35_1_Branch_2_Conv2d_0c_3x3_BatchNorm", "trainable": true, "dtype": "float32", "axis": 3, "momentum": 0.995, "epsilon": 0.001, "center": true, "scale": false, "beta_initializer": {"class_name": "Zeros", "config": {}}, "gamma_initializer": {"class_name": "Ones", "config": {}}, "moving_mean_initializer": {"class_name": "Zeros", "config": {}}, "moving_variance_initializer": {"class_name": "Ones", "config": {}}, "beta_regularizer": null, "gamma_regularizer": null, "beta_constraint": null, "gamma_constraint": null}, "inbound_nodes": [[["Block35_1_Branch_2_Conv2d_0c_3x3", 0, 0, {}]]]}, {"name": "Block35_1_Branch_0_Conv2d_1x1_Activation", "class_name": "Activation", "config": {"name": "Block35_1_Branch_0_Conv2d_1x1_Activation", "trainable": true, "dtype": "float32", "activation": "relu"}, "inbound_nodes": [[["Block35_1_Branch_0_Conv2d_1x1_BatchNorm", 0, 0, {}]]]}, {"name": "Block35_1_Branch_1_Conv2d_0b_3x3_Activation", "class_name": "Activation", "config": {"name": "Block35_1_Branch_1_Conv2d_0b_3x3_Activation", "trainable": true, "dtype": "float32", "activation": "relu"}, "inbound_nodes": [[["Block35_1_Branch_1_Conv2d_0b_3x3_BatchNorm", 0, 0, {}]]]}, {"name": "Block35_1_Branch_2_Conv2d_0c_3x3_Activation", "class_name": "Activation", "config": {"name": "Block35_1_Branch_2_Conv2d_0c_3x3_Activation", "trainable": true, "dtype": "float32", "activation": "relu"}, "inbound_nodes": [[["Block35_1_Branch_2_Conv2d_0c_3x3_BatchNorm", 0, 0, {}]]]}, {"name": "Block35_1_Concatenate", "class_name": "Concatenate", "config": {"name": "Block35_1_Concatenate", "trainable": true, "dtype": "float32", "axis": 3}, "inbound_nodes": [[["Block35_1_Branch_0_Conv2d_1x1_Activation", 0, 0, {}], ["Block35_1_Branch_1_Conv2d_0b_3x3_Activation", 0, 0, {}], ["Block35_1_Branch_2_Conv2d_0c_3x3_Activation", 0, 0, {}]]]}, {"name": "Block35_1_Conv2d_1x1", "class_name": "Conv2D", "config": {"name": "Block35_1_Conv2d_1x1", "trainable": true, "dtype": "float32", "filters": 256, "kernel_size": [1, 1], "strides": [1, 1], "padding": "same", "data_format": "channels_last", "dilation_rate": [1, 1], "activation": "linear", "use_bias": true, "kernel_initializer": {"class_name": "VarianceScaling", "config": {"scale": 1.0, "mode": "fan_avg", "distribution": "uniform", "seed": null}}, "bias_initializer": {"class_name": "Zeros", "config": {}}, "kernel_regularizer": null, "bias_regularizer": null, "activity_regularizer": null, "kernel_constraint": null, "bias_constraint": null}, "inbound_nodes": [[["Block35_1_Concatenate", 0, 0, {}]]]}, {"name": "lambda_51", "class_name": "Lambda017", "config": {"name": "lambda_51", "trainable": true, "dtype": "float32", "function": ["4wIAAAAAAAAAAgAAAAIAAABDAAAAcwgAAAB8AHwBFABTACkBTqkAKQLaAXjaBXNjYWxlcgEAAABy\nAQAAAPpSQzpcVXNlcnNcMVxEZXNrdG9wXHRlbnNvcmZsb3dca2VyYXMtZmFjZW5ldC1tYXN0ZXJc\nbm90ZWJvb2tcaW5jZXB0aW9uX3Jlc25ldF92MS5wedoHc2NhbGluZxkAAABzAgAAAAAB\n", null, null], "function_type": "lambda", "output_shape": [17, 17, 256], "output_shape_type": "raw", "arguments": {"scale": 0.17}}, "inbound_nodes": [[["Block35_1_Conv2d_1x1", 0, 0, {}]]]}, {"name": "add_43", "class_name": "Add", "config": {"name": "add_43", "trainable": true, "dtype": "float32"}, "inbound_nodes": [[["Conv2d_4b_3x3_Activation", 0, 0, {}], ["lambda_51", 0, 0, {}]]]}, {"name": "Block35_1_Activation", "class_name": "Activation", "config": {"name": "Block35_1_Activation", "trainable": true, "dtype": "float32", "activation": "relu"}, "inbound_nodes": [[["add_43", 0, 0, {}]]]}, {"name": "Block35_2_Branch_2_Conv2d_0a_1x1", "class_name": "Conv2D", "config": {"name": "Block35_2_Branch_2_Conv2d_0a_1x1", "trainable": true, "dtype": "float32", "filters": 32, "kernel_size": [1, 1], "strides": [1, 1], "padding": "same", "data_format": "channels_last", "dilation_rate": [1, 1], "activation": "linear", "use_bias": false, "kernel_initializer": {"class_name": "VarianceScaling", "config": {"scale": 1.0, "mode": "fan_avg", "distribution": "uniform", "seed": null}}, "bias_initializer": {"class_name": "Zeros", "config": {}}, "kernel_regularizer": null, "bias_regularizer": null, "activity_regularizer": null, "kernel_constraint": null, "bias_constraint": null}, "inbound_nodes": [[["Block35_1_Activation", 0, 0, {}]]]}, {"name": "Block35_2_Branch_2_Conv2d_0a_1x1_BatchNorm", "class_name": "BatchNormalization", "config": {"name": "Block35_2_Branch_2_Conv2d_0a_1x1_BatchNorm", "trainable": true, "dtype": "float32", "axis": 3, "momentum": 0.995, "epsilon": 0.001, "center": true, "scale": false, "beta_initializer": {"class_name": "Zeros", "config": {}}, "gamma_initializer": {"class_name": "Ones", "config": {}}, "moving_mean_initializer": {"class_name": "Zeros", "config": {}}, "moving_variance_initializer": {"class_name": "Ones", "config": {}}, "beta_regularizer": null, "gamma_regularizer": null, "beta_constraint": null, "gamma_constraint": null}, "inbound_nodes": [[["Block35_2_Branch_2_Conv2d_0a_1x1", 0, 0, {}]]]}, {"name": "Block35_2_Branch_2_Conv2d_0a_1x1_Activation", "class_name": "Activation", "config": {"name": "Block35_2_Branch_2_Conv2d_0a_1x1_Activation", "trainable": true, "dtype": "float32", "activation": "relu"}, "inbound_nodes": [[["Block35_2_Branch_2_Conv2d_0a_1x1_BatchNorm", 0, 0, {}]]]}, {"name": "Block35_2_Branch_1_Conv2d_0a_1x1", "class_name": "Conv2D", "config": {"name": "Block35_2_Branch_1_Conv2d_0a_1x1", "trainable": true, "dtype": "float32", "filters": 32, "kernel_size": [1, 1], "strides": [1, 1], "padding": "same", "data_format": "channels_last", "dilation_rate": [1, 1], "activation": "linear", "use_bias": false, "kernel_initializer": {"class_name": "VarianceScaling", "config": {"scale": 1.0, "mode": "fan_avg", "distribution": "uniform", "seed": null}}, "bias_initializer": {"class_name": "Zeros", "config": {}}, "kernel_regularizer": null, "bias_regularizer": null, "activity_regularizer": null, "kernel_constraint": null, "bias_constraint": null}, "inbound_nodes": [[["Block35_1_Activation", 0, 0, {}]]]}, {"name": "Block35_2_Branch_2_Conv2d_0b_3x3", "class_name": "Conv2D", "config": {"name": "Block35_2_Branch_2_Conv2d_0b_3x3", "trainable": true, "dtype": "float32", "filters": 32, "kernel_size": [3, 3], "strides": [1, 1], "padding": "same", "data_format": "channels_last", "dilation_rate": [1, 1], "activation": "linear", "use_bias": false, "kernel_initializer": {"class_name": "VarianceScaling", "config": {"scale": 1.0, "mode": "fan_avg", "distribution": "uniform", "seed": null}}, "bias_initializer": {"class_name": "Zeros", "config": {}}, "kernel_regularizer": null, "bias_regularizer": null, "activity_regularizer": null, "kernel_constraint": null, "bias_constraint": null}, "inbound_nodes": [[["Block35_2_Branch_2_Conv2d_0a_1x1_Activation", 0, 0, {}]]]}, {"name": "Block35_2_Branch_1_Conv2d_0a_1x1_BatchNorm", "class_name": "BatchNormalization", "config": {"name": "Block35_2_Branch_1_Conv2d_0a_1x1_BatchNorm", "trainable": true, "dtype": "float32", "axis": 3, "momentum": 0.995, "epsilon": 0.001, "center": true, "scale": false, "beta_initializer": {"class_name": "Zeros", "config": {}}, "gamma_initializer": {"class_name": "Ones", "config": {}}, "moving_mean_initializer": {"class_name": "Zeros", "config": {}}, "moving_variance_initializer": {"class_name": "Ones", "config": {}}, "beta_regularizer": null, "gamma_regularizer": null, "beta_constraint": null, "gamma_constraint": null}, "inbound_nodes": [[["Block35_2_Branch_1_Conv2d_0a_1x1", 0, 0, {}]]]}, {"name": "Block35_2_Branch_2_Conv2d_0b_3x3_BatchNorm", "class_name": "BatchNormalization", "config": {"name": "Block35_2_Branch_2_Conv2d_0b_3x3_BatchNorm", "trainable": true, "dtype": "float32", "axis": 3, "momentum": 0.995, "epsilon": 0.001, "center": true, "scale": false, "beta_initializer": {"class_name": "Zeros", "config": {}}, "gamma_initializer": {"class_name": "Ones", "config": {}}, "moving_mean_initializer": {"class_name": "Zeros", "config": {}}, "moving_variance_initializer": {"class_name": "Ones", "config": {}}, "beta_regularizer": null, "gamma_regularizer": null, "beta_constraint": null, "gamma_constraint": null}, "inbound_nodes": [[["Block35_2_Branch_2_Conv2d_0b_3x3", 0, 0, {}]]]}, {"name": "Block35_2_Branch_1_Conv2d_0a_1x1_Activation", "class_name": "Activation", "config": {"name": "Block35_2_Branch_1_Conv2d_0a_1x1_Activation", "trainable": true, "dtype": "float32", "activation": "relu"}, "inbound_nodes": [[["Block35_2_Branch_1_Conv2d_0a_1x1_BatchNorm", 0, 0, {}]]]}, {"name": "Block35_2_Branch_2_Conv2d_0b_3x3_Activation", "class_name": "Activation", "config": {"name": "Block35_2_Branch_2_Conv2d_0b_3x3_Activation", "trainable": true, "dtype": "float32", "activation": "relu"}, "inbound_nodes": [[["Block35_2_Branch_2_Conv2d_0b_3x3_BatchNorm", 0, 0, {}]]]}, {"name": "Block35_2_Branch_0_Conv2d_1x1", "class_name": "Conv2D", "config": {"name": "Block35_2_Branch_0_Conv2d_1x1", "trainable": true, "dtype": "float32", "filters": 32, "kernel_size": [1, 1], "strides": [1, 1], "padding": "same", "data_format": "channels_last", "dilation_rate": [1, 1], "activation": "linear", "use_bias": false, "kernel_initializer": {"class_name": "VarianceScaling", "config": {"scale": 1.0, "mode": "fan_avg", "distribution": "uniform", "seed": null}}, "bias_initializer": {"class_name": "Zeros", "config": {}}, "kernel_regularizer": null, "bias_regularizer": null, "activity_regularizer": null, "kernel_constraint": null, "bias_constraint": null}, "inbound_nodes": [[["Block35_1_Activation", 0, 0, {}]]]}, {"name": "Block35_2_Branch_1_Conv2d_0b_3x3", "class_name": "Conv2D", "config": {"name": "Block35_2_Branch_1_Conv2d_0b_3x3", "trainable": true, "dtype": "float32", "filters": 32, "kernel_size": [3, 3], "strides": [1, 1], "padding": "same", "data_format": "channels_last", "dilation_rate": [1, 1], "activation": "linear", "use_bias": false, "kernel_initializer": {"class_name": "VarianceScaling", "config": {"scale": 1.0, "mode": "fan_avg", "distribution": "uniform", "seed": null}}, "bias_initializer": {"class_name": "Zeros", "config": {}}, "kernel_regularizer": null, "bias_regularizer": null, "activity_regularizer": null, "kernel_constraint": null, "bias_constraint": null}, "inbound_nodes": [[["Block35_2_Branch_1_Conv2d_0a_1x1_Activation", 0, 0, {}]]]}, {"name": "Block35_2_Branch_2_Conv2d_0c_3x3", "class_name": "Conv2D", "config": {"name": "Block35_2_Branch_2_Conv2d_0c_3x3", "trainable": true, "dtype": "float32", "filters": 32, "kernel_size": [3, 3], "strides": [1, 1], "padding": "same", "data_format": "channels_last", "dilation_rate": [1, 1], "activation": "linear", "use_bias": false, "kernel_initializer": {"class_name": "VarianceScaling", "config": {"scale": 1.0, "mode": "fan_avg", "distribution": "uniform", "seed": null}}, "bias_initializer": {"class_name": "Zeros", "config": {}}, "kernel_regularizer": null, "bias_regularizer": null, "activity_regularizer": null, "kernel_constraint": null, "bias_constraint": null}, "inbound_nodes": [[["Block35_2_Branch_2_Conv2d_0b_3x3_Activation", 0, 0, {}]]]}, {"name": "Block35_2_Branch_0_Conv2d_1x1_BatchNorm", "class_name": "BatchNormalization", "config": {"name": "Block35_2_Branch_0_Conv2d_1x1_BatchNorm", "trainable": true, "dtype": "float32", "axis": 3, "momentum": 0.995, "epsilon": 0.001, "center": true, "scale": false, "beta_initializer": {"class_name": "Zeros", "config": {}}, "gamma_initializer": {"class_name": "Ones", "config": {}}, "moving_mean_initializer": {"class_name": "Zeros", "config": {}}, "moving_variance_initializer": {"class_name": "Ones", "config": {}}, "beta_regularizer": null, "gamma_regularizer": null, "beta_constraint": null, "gamma_constraint": null}, "inbound_nodes": [[["Block35_2_Branch_0_Conv2d_1x1", 0, 0, {}]]]}, {"name": "Block35_2_Branch_1_Conv2d_0b_3x3_BatchNorm", "class_name": "BatchNormalization", "config": {"name": "Block35_2_Branch_1_Conv2d_0b_3x3_BatchNorm", "trainable": true, "dtype": "float32", "axis": 3, "momentum": 0.995, "epsilon": 0.001, "center": true, "scale": false, "beta_initializer": {"class_name": "Zeros", "config": {}}, "gamma_initializer": {"class_name": "Ones", "config": {}}, "moving_mean_initializer": {"class_name": "Zeros", "config": {}}, "moving_variance_initializer": {"class_name": "Ones", "config": {}}, "beta_regularizer": null, "gamma_regularizer": null, "beta_constraint": null, "gamma_constraint": null}, "inbound_nodes": [[["Block35_2_Branch_1_Conv2d_0b_3x3", 0, 0, {}]]]}, {"name": "Block35_2_Branch_2_Conv2d_0c_3x3_BatchNorm", "class_name": "BatchNormalization", "config": {"name": "Block35_2_Branch_2_Conv2d_0c_3x3_BatchNorm", "trainable": true, "dtype": "float32", "axis": 3, "momentum": 0.995, "epsilon": 0.001, "center": true, "scale": false, "beta_initializer": {"class_name": "Zeros", "config": {}}, "gamma_initializer": {"class_name": "Ones", "config": {}}, "moving_mean_initializer": {"class_name": "Zeros", "config": {}}, "moving_variance_initializer": {"class_name": "Ones", "config": {}}, "beta_regularizer": null, "gamma_regularizer": null, "beta_constraint": null, "gamma_constraint": null}, "inbound_nodes": [[["Block35_2_Branch_2_Conv2d_0c_3x3", 0, 0, {}]]]}, {"name": "Block35_2_Branch_0_Conv2d_1x1_Activation", "class_name": "Activation", "config": {"name": "Block35_2_Branch_0_Conv2d_1x1_Activation", "trainable": true, "dtype": "float32", "activation": "relu"}, "inbound_nodes": [[["Block35_2_Branch_0_Conv2d_1x1_BatchNorm", 0, 0, {}]]]}, {"name": "Block35_2_Branch_1_Conv2d_0b_3x3_Activation", "class_name": "Activation", "config": {"name": "Block35_2_Branch_1_Conv2d_0b_3x3_Activation", "trainable": true, "dtype": "float32", "activation": "relu"}, "inbound_nodes": [[["Block35_2_Branch_1_Conv2d_0b_3x3_BatchNorm", 0, 0, {}]]]}, {"name": "Block35_2_Branch_2_Conv2d_0c_3x3_Activation", "class_name": "Activation", "config": {"name": "Block35_2_Branch_2_Conv2d_0c_3x3_Activation", "trainable": true, "dtype": "float32", "activation": "relu"}, "inbound_nodes": [[["Block35_2_Branch_2_Conv2d_0c_3x3_BatchNorm", 0, 0, {}]]]}, {"name": "Block35_2_Concatenate", "class_name": "Concatenate", "config": {"name": "Block35_2_Concatenate", "trainable": true, "dtype": "float32", "axis": 3}, "inbound_nodes": [[["Block35_2_Branch_0_Conv2d_1x1_Activation", 0, 0, {}], ["Block35_2_Branch_1_Conv2d_0b_3x3_Activation", 0, 0, {}], ["Block35_2_Branch_2_Conv2d_0c_3x3_Activation", 0, 0, {}]]]}, {"name": "Block35_2_Conv2d_1x1", "class_name": "Conv2D", "config": {"name": "Block35_2_Conv2d_1x1", "trainable": true, "dtype": "float32", "filters": 256, "kernel_size": [1, 1], "strides": [1, 1], "padding": "same", "data_format": "channels_last", "dilation_rate": [1, 1], "activation": "linear", "use_bias": true, "kernel_initializer": {"class_name": "VarianceScaling", "config": {"scale": 1.0, "mode": "fan_avg", "distribution": "uniform", "seed": null}}, "bias_initializer": {"class_name": "Zeros", "config": {}}, "kernel_regularizer": null, "bias_regularizer": null, "activity_regularizer": null, "kernel_constraint": null, "bias_constraint": null}, "inbound_nodes": [[["Block35_2_Concatenate", 0, 0, {}]]]}, {"name": "lambda_52", "class_name": "Lambda017", "config": {"name": "lambda_52", "trainable": true, "dtype": "float32", "function": ["4wIAAAAAAAAAAgAAAAIAAABDAAAAcwgAAAB8AHwBFABTACkBTqkAKQLaAXjaBXNjYWxlcgEAAABy\nAQAAAPpSQzpcVXNlcnNcMVxEZXNrdG9wXHRlbnNvcmZsb3dca2VyYXMtZmFjZW5ldC1tYXN0ZXJc\nbm90ZWJvb2tcaW5jZXB0aW9uX3Jlc25ldF92MS5wedoHc2NhbGluZxkAAABzAgAAAAAB\n", null, null], "function_type": "lambda", "output_shape": [17, 17, 256], "output_shape_type": "raw", "arguments": {"scale": 0.17}}, "inbound_nodes": [[["Block35_2_Conv2d_1x1", 0, 0, {}]]]}, {"name": "add_44", "class_name": "Add", "config": {"name": "add_44", "trainable": true, "dtype": "float32"}, "inbound_nodes": [[["Block35_1_Activation", 0, 0, {}], ["lambda_52", 0, 0, {}]]]}, {"name": "Block35_2_Activation", "class_name": "Activation", "config": {"name": "Block35_2_Activation", "trainable": true, "dtype": "float32", "activation": "relu"}, "inbound_nodes": [[["add_44", 0, 0, {}]]]}, {"name": "Block35_3_Branch_2_Conv2d_0a_1x1", "class_name": "Conv2D", "config": {"name": "Block35_3_Branch_2_Conv2d_0a_1x1", "trainable": true, "dtype": "float32", "filters": 32, "kernel_size": [1, 1], "strides": [1, 1], "padding": "same", "data_format": "channels_last", "dilation_rate": [1, 1], "activation": "linear", "use_bias": false, "kernel_initializer": {"class_name": "VarianceScaling", "config": {"scale": 1.0, "mode": "fan_avg", "distribution": "uniform", "seed": null}}, "bias_initializer": {"class_name": "Zeros", "config": {}}, "kernel_regularizer": null, "bias_regularizer": null, "activity_regularizer": null, "kernel_constraint": null, "bias_constraint": null}, "inbound_nodes": [[["Block35_2_Activation", 0, 0, {}]]]}, {"name": "Block35_3_Branch_2_Conv2d_0a_1x1_BatchNorm", "class_name": "BatchNormalization", "config": {"name": "Block35_3_Branch_2_Conv2d_0a_1x1_BatchNorm", "trainable": true, "dtype": "float32", "axis": 3, "momentum": 0.995, "epsilon": 0.001, "center": true, "scale": false, "beta_initializer": {"class_name": "Zeros", "config": {}}, "gamma_initializer": {"class_name": "Ones", "config": {}}, "moving_mean_initializer": {"class_name": "Zeros", "config": {}}, "moving_variance_initializer": {"class_name": "Ones", "config": {}}, "beta_regularizer": null, "gamma_regularizer": null, "beta_constraint": null, "gamma_constraint": null}, "inbound_nodes": [[["Block35_3_Branch_2_Conv2d_0a_1x1", 0, 0, {}]]]}, {"name": "Block35_3_Branch_2_Conv2d_0a_1x1_Activation", "class_name": "Activation", "config": {"name": "Block35_3_Branch_2_Conv2d_0a_1x1_Activation", "trainable": true, "dtype": "float32", "activation": "relu"}, "inbound_nodes": [[["Block35_3_Branch_2_Conv2d_0a_1x1_BatchNorm", 0, 0, {}]]]}, {"name": "Block35_3_Branch_1_Conv2d_0a_1x1", "class_name": "Conv2D", "config": {"name": "Block35_3_Branch_1_Conv2d_0a_1x1", "trainable": true, "dtype": "float32", "filters": 32, "kernel_size": [1, 1], "strides": [1, 1], "padding": "same", "data_format": "channels_last", "dilation_rate": [1, 1], "activation": "linear", "use_bias": false, "kernel_initializer": {"class_name": "VarianceScaling", "config": {"scale": 1.0, "mode": "fan_avg", "distribution": "uniform", "seed": null}}, "bias_initializer": {"class_name": "Zeros", "config": {}}, "kernel_regularizer": null, "bias_regularizer": null, "activity_regularizer": null, "kernel_constraint": null, "bias_constraint": null}, "inbound_nodes": [[["Block35_2_Activation", 0, 0, {}]]]}, {"name": "Block35_3_Branch_2_Conv2d_0b_3x3", "class_name": "Conv2D", "config": {"name": "Block35_3_Branch_2_Conv2d_0b_3x3", "trainable": true, "dtype": "float32", "filters": 32, "kernel_size": [3, 3], "strides": [1, 1], "padding": "same", "data_format": "channels_last", "dilation_rate": [1, 1], "activation": "linear", "use_bias": false, "kernel_initializer": {"class_name": "VarianceScaling", "config": {"scale": 1.0, "mode": "fan_avg", "distribution": "uniform", "seed": null}}, "bias_initializer": {"class_name": "Zeros", "config": {}}, "kernel_regularizer": null, "bias_regularizer": null, "activity_regularizer": null, "kernel_constraint": null, "bias_constraint": null}, "inbound_nodes": [[["Block35_3_Branch_2_Conv2d_0a_1x1_Activation", 0, 0, {}]]]}, {"name": "Block35_3_Branch_1_Conv2d_0a_1x1_BatchNorm", "class_name": "BatchNormalization", "config": {"name": "Block35_3_Branch_1_Conv2d_0a_1x1_BatchNorm", "trainable": true, "dtype": "float32", "axis": 3, "momentum": 0.995, "epsilon": 0.001, "center": true, "scale": false, "beta_initializer": {"class_name": "Zeros", "config": {}}, "gamma_initializer": {"class_name": "Ones", "config": {}}, "moving_mean_initializer": {"class_name": "Zeros", "config": {}}, "moving_variance_initializer": {"class_name": "Ones", "config": {}}, "beta_regularizer": null, "gamma_regularizer": null, "beta_constraint": null, "gamma_constraint": null}, "inbound_nodes": [[["Block35_3_Branch_1_Conv2d_0a_1x1", 0, 0, {}]]]}, {"name": "Block35_3_Branch_2_Conv2d_0b_3x3_BatchNorm", "class_name": "BatchNormalization", "config": {"name": "Block35_3_Branch_2_Conv2d_0b_3x3_BatchNorm", "trainable": true, "dtype": "float32", "axis": 3, "momentum": 0.995, "epsilon": 0.001, "center": true, "scale": false, "beta_initializer": {"class_name": "Zeros", "config": {}}, "gamma_initializer": {"class_name": "Ones", "config": {}}, "moving_mean_initializer": {"class_name": "Zeros", "config": {}}, "moving_variance_initializer": {"class_name": "Ones", "config": {}}, "beta_regularizer": null, "gamma_regularizer": null, "beta_constraint": null, "gamma_constraint": null}, "inbound_nodes": [[["Block35_3_Branch_2_Conv2d_0b_3x3", 0, 0, {}]]]}, {"name": "Block35_3_Branch_1_Conv2d_0a_1x1_Activation", "class_name": "Activation", "config": {"name": "Block35_3_Branch_1_Conv2d_0a_1x1_Activation", "trainable": true, "dtype": "float32", "activation": "relu"}, "inbound_nodes": [[["Block35_3_Branch_1_Conv2d_0a_1x1_BatchNorm", 0, 0, {}]]]}, {"name": "Block35_3_Branch_2_Conv2d_0b_3x3_Activation", "class_name": "Activation", "config": {"name": "Block35_3_Branch_2_Conv2d_0b_3x3_Activation", "trainable": true, "dtype": "float32", "activation": "relu"}, "inbound_nodes": [[["Block35_3_Branch_2_Conv2d_0b_3x3_BatchNorm", 0, 0, {}]]]}, {"name": "Block35_3_Branch_0_Conv2d_1x1", "class_name": "Conv2D", "config": {"name": "Block35_3_Branch_0_Conv2d_1x1", "trainable": true, "dtype": "float32", "filters": 32, "kernel_size": [1, 1], "strides": [1, 1], "padding": "same", "data_format": "channels_last", "dilation_rate": [1, 1], "activation": "linear", "use_bias": false, "kernel_initializer": {"class_name": "VarianceScaling", "config": {"scale": 1.0, "mode": "fan_avg", "distribution": "uniform", "seed": null}}, "bias_initializer": {"class_name": "Zeros", "config": {}}, "kernel_regularizer": null, "bias_regularizer": null, "activity_regularizer": null, "kernel_constraint": null, "bias_constraint": null}, "inbound_nodes": [[["Block35_2_Activation", 0, 0, {}]]]}, {"name": "Block35_3_Branch_1_Conv2d_0b_3x3", "class_name": "Conv2D", "config": {"name": "Block35_3_Branch_1_Conv2d_0b_3x3", "trainable": true, "dtype": "float32", "filters": 32, "kernel_size": [3, 3], "strides": [1, 1], "padding": "same", "data_format": "channels_last", "dilation_rate": [1, 1], "activation": "linear", "use_bias": false, "kernel_initializer": {"class_name": "VarianceScaling", "config": {"scale": 1.0, "mode": "fan_avg", "distribution": "uniform", "seed": null}}, "bias_initializer": {"class_name": "Zeros", "config": {}}, "kernel_regularizer": null, "bias_regularizer": null, "activity_regularizer": null, "kernel_constraint": null, "bias_constraint": null}, "inbound_nodes": [[["Block35_3_Branch_1_Conv2d_0a_1x1_Activation", 0, 0, {}]]]}, {"name": "Block35_3_Branch_2_Conv2d_0c_3x3", "class_name": "Conv2D", "config": {"name": "Block35_3_Branch_2_Conv2d_0c_3x3", "trainable": true, "dtype": "float32", "filters": 32, "kernel_size": [3, 3], "strides": [1, 1], "padding": "same", "data_format": "channels_last", "dilation_rate": [1, 1], "activation": "linear", "use_bias": false, "kernel_initializer": {"class_name": "VarianceScaling", "config": {"scale": 1.0, "mode": "fan_avg", "distribution": "uniform", "seed": null}}, "bias_initializer": {"class_name": "Zeros", "config": {}}, "kernel_regularizer": null, "bias_regularizer": null, "activity_regularizer": null, "kernel_constraint": null, "bias_constraint": null}, "inbound_nodes": [[["Block35_3_Branch_2_Conv2d_0b_3x3_Activation", 0, 0, {}]]]}, {"name": "Block35_3_Branch_0_Conv2d_1x1_BatchNorm", "class_name": "BatchNormalization", "config": {"name": "Block35_3_Branch_0_Conv2d_1x1_BatchNorm", "trainable": true, "dtype": "float32", "axis": 3, "momentum": 0.995, "epsilon": 0.001, "center": true, "scale": false, "beta_initializer": {"class_name": "Zeros", "config": {}}, "gamma_initializer": {"class_name": "Ones", "config": {}}, "moving_mean_initializer": {"class_name": "Zeros", "config": {}}, "moving_variance_initializer": {"class_name": "Ones", "config": {}}, "beta_regularizer": null, "gamma_regularizer": null, "beta_constraint": null, "gamma_constraint": null}, "inbound_nodes": [[["Block35_3_Branch_0_Conv2d_1x1", 0, 0, {}]]]}, {"name": "Block35_3_Branch_1_Conv2d_0b_3x3_BatchNorm", "class_name": "BatchNormalization", "config": {"name": "Block35_3_Branch_1_Conv2d_0b_3x3_BatchNorm", "trainable": true, "dtype": "float32", "axis": 3, "momentum": 0.995, "epsilon": 0.001, "center": true, "scale": false, "beta_initializer": {"class_name": "Zeros", "config": {}}, "gamma_initializer": {"class_name": "Ones", "config": {}}, "moving_mean_initializer": {"class_name": "Zeros", "config": {}}, "moving_variance_initializer": {"class_name": "Ones", "config": {}}, "beta_regularizer": null, "gamma_regularizer": null, "beta_constraint": null, "gamma_constraint": null}, "inbound_nodes": [[["Block35_3_Branch_1_Conv2d_0b_3x3", 0, 0, {}]]]}, {"name": "Block35_3_Branch_2_Conv2d_0c_3x3_BatchNorm", "class_name": "BatchNormalization", "config": {"name": "Block35_3_Branch_2_Conv2d_0c_3x3_BatchNorm", "trainable": true, "dtype": "float32", "axis": 3, "momentum": 0.995, "epsilon": 0.001, "center": true, "scale": false, "beta_initializer": {"class_name": "Zeros", "config": {}}, "gamma_initializer": {"class_name": "Ones", "config": {}}, "moving_mean_initializer": {"class_name": "Zeros", "config": {}}, "moving_variance_initializer": {"class_name": "Ones", "config": {}}, "beta_regularizer": null, "gamma_regularizer": null, "beta_constraint": null, "gamma_constraint": null}, "inbound_nodes": [[["Block35_3_Branch_2_Conv2d_0c_3x3", 0, 0, {}]]]}, {"name": "Block35_3_Branch_0_Conv2d_1x1_Activation", "class_name": "Activation", "config": {"name": "Block35_3_Branch_0_Conv2d_1x1_Activation", "trainable": true, "dtype": "float32", "activation": "relu"}, "inbound_nodes": [[["Block35_3_Branch_0_Conv2d_1x1_BatchNorm", 0, 0, {}]]]}, {"name": "Block35_3_Branch_1_Conv2d_0b_3x3_Activation", "class_name": "Activation", "config": {"name": "Block35_3_Branch_1_Conv2d_0b_3x3_Activation", "trainable": true, "dtype": "float32", "activation": "relu"}, "inbound_nodes": [[["Block35_3_Branch_1_Conv2d_0b_3x3_BatchNorm", 0, 0, {}]]]}, {"name": "Block35_3_Branch_2_Conv2d_0c_3x3_Activation", "class_name": "Activation", "config": {"name": "Block35_3_Branch_2_Conv2d_0c_3x3_Activation", "trainable": true, "dtype": "float32", "activation": "relu"}, "inbound_nodes": [[["Block35_3_Branch_2_Conv2d_0c_3x3_BatchNorm", 0, 0, {}]]]}, {"name": "Block35_3_Concatenate", "class_name": "Concatenate", "config": {"name": "Block35_3_Concatenate", "trainable": true, "dtype": "float32", "axis": 3}, "inbound_nodes": [[["Block35_3_Branch_0_Conv2d_1x1_Activation", 0, 0, {}], ["Block35_3_Branch_1_Conv2d_0b_3x3_Activation", 0, 0, {}], ["Block35_3_Branch_2_Conv2d_0c_3x3_Activation", 0, 0, {}]]]}, {"name": "Block35_3_Conv2d_1x1", "class_name": "Conv2D", "config": {"name": "Block35_3_Conv2d_1x1", "trainable": true, "dtype": "float32", "filters": 256, "kernel_size": [1, 1], "strides": [1, 1], "padding": "same", "data_format": "channels_last", "dilation_rate": [1, 1], "activation": "linear", "use_bias": true, "kernel_initializer": {"class_name": "VarianceScaling", "config": {"scale": 1.0, "mode": "fan_avg", "distribution": "uniform", "seed": null}}, "bias_initializer": {"class_name": "Zeros", "config": {}}, "kernel_regularizer": null, "bias_regularizer": null, "activity_regularizer": null, "kernel_constraint": null, "bias_constraint": null}, "inbound_nodes": [[["Block35_3_Concatenate", 0, 0, {}]]]}, {"name": "lambda_53", "class_name": "Lambda017", "config": {"name": "lambda_53", "trainable": true, "dtype": "float32", "function": ["4wIAAAAAAAAAAgAAAAIAAABDAAAAcwgAAAB8AHwBFABTACkBTqkAKQLaAXjaBXNjYWxlcgEAAABy\nAQAAAPpSQzpcVXNlcnNcMVxEZXNrdG9wXHRlbnNvcmZsb3dca2VyYXMtZmFjZW5ldC1tYXN0ZXJc\nbm90ZWJvb2tcaW5jZXB0aW9uX3Jlc25ldF92MS5wedoHc2NhbGluZxkAAABzAgAAAAAB\n", null, null], "function_type": "lambda", "output_shape": [17, 17, 256], "output_shape_type": "raw", "arguments": {"scale": 0.17}}, "inbound_nodes": [[["Block35_3_Conv2d_1x1", 0, 0, {}]]]}, {"name": "add_45", "class_name": "Add", "config": {"name": "add_45", "trainable": true, "dtype": "float32"}, "inbound_nodes": [[["Block35_2_Activation", 0, 0, {}], ["lambda_53", 0, 0, {}]]]}, {"name": "Block35_3_Activation", "class_name": "Activation", "config": {"name": "Block35_3_Activation", "trainable": true, "dtype": "float32", "activation": "relu"}, "inbound_nodes": [[["add_45", 0, 0, {}]]]}, {"name": "Block35_4_Branch_2_Conv2d_0a_1x1", "class_name": "Conv2D", "config": {"name": "Block35_4_Branch_2_Conv2d_0a_1x1", "trainable": true, "dtype": "float32", "filters": 32, "kernel_size": [1, 1], "strides": [1, 1], "padding": "same", "data_format": "channels_last", "dilation_rate": [1, 1], "activation": "linear", "use_bias": false, "kernel_initializer": {"class_name": "VarianceScaling", "config": {"scale": 1.0, "mode": "fan_avg", "distribution": "uniform", "seed": null}}, "bias_initializer": {"class_name": "Zeros", "config": {}}, "kernel_regularizer": null, "bias_regularizer": null, "activity_regularizer": null, "kernel_constraint": null, "bias_constraint": null}, "inbound_nodes": [[["Block35_3_Activation", 0, 0, {}]]]}, {"name": "Block35_4_Branch_2_Conv2d_0a_1x1_BatchNorm", "class_name": "BatchNormalization", "config": {"name": "Block35_4_Branch_2_Conv2d_0a_1x1_BatchNorm", "trainable": true, "dtype": "float32", "axis": 3, "momentum": 0.995, "epsilon": 0.001, "center": true, "scale": false, "beta_initializer": {"class_name": "Zeros", "config": {}}, "gamma_initializer": {"class_name": "Ones", "config": {}}, "moving_mean_initializer": {"class_name": "Zeros", "config": {}}, "moving_variance_initializer": {"class_name": "Ones", "config": {}}, "beta_regularizer": null, "gamma_regularizer": null, "beta_constraint": null, "gamma_constraint": null}, "inbound_nodes": [[["Block35_4_Branch_2_Conv2d_0a_1x1", 0, 0, {}]]]}, {"name": "Block35_4_Branch_2_Conv2d_0a_1x1_Activation", "class_name": "Activation", "config": {"name": "Block35_4_Branch_2_Conv2d_0a_1x1_Activation", "trainable": true, "dtype": "float32", "activation": "relu"}, "inbound_nodes": [[["Block35_4_Branch_2_Conv2d_0a_1x1_BatchNorm", 0, 0, {}]]]}, {"name": "Block35_4_Branch_1_Conv2d_0a_1x1", "class_name": "Conv2D", "config": {"name": "Block35_4_Branch_1_Conv2d_0a_1x1", "trainable": true, "dtype": "float32", "filters": 32, "kernel_size": [1, 1], "strides": [1, 1], "padding": "same", "data_format": "channels_last", "dilation_rate": [1, 1], "activation": "linear", "use_bias": false, "kernel_initializer": {"class_name": "VarianceScaling", "config": {"scale": 1.0, "mode": "fan_avg", "distribution": "uniform", "seed": null}}, "bias_initializer": {"class_name": "Zeros", "config": {}}, "kernel_regularizer": null, "bias_regularizer": null, "activity_regularizer": null, "kernel_constraint": null, "bias_constraint": null}, "inbound_nodes": [[["Block35_3_Activation", 0, 0, {}]]]}, {"name": "Block35_4_Branch_2_Conv2d_0b_3x3", "class_name": "Conv2D", "config": {"name": "Block35_4_Branch_2_Conv2d_0b_3x3", "trainable": true, "dtype": "float32", "filters": 32, "kernel_size": [3, 3], "strides": [1, 1], "padding": "same", "data_format": "channels_last", "dilation_rate": [1, 1], "activation": "linear", "use_bias": false, "kernel_initializer": {"class_name": "VarianceScaling", "config": {"scale": 1.0, "mode": "fan_avg", "distribution": "uniform", "seed": null}}, "bias_initializer": {"class_name": "Zeros", "config": {}}, "kernel_regularizer": null, "bias_regularizer": null, "activity_regularizer": null, "kernel_constraint": null, "bias_constraint": null}, "inbound_nodes": [[["Block35_4_Branch_2_Conv2d_0a_1x1_Activation", 0, 0, {}]]]}, {"name": "Block35_4_Branch_1_Conv2d_0a_1x1_BatchNorm", "class_name": "BatchNormalization", "config": {"name": "Block35_4_Branch_1_Conv2d_0a_1x1_BatchNorm", "trainable": true, "dtype": "float32", "axis": 3, "momentum": 0.995, "epsilon": 0.001, "center": true, "scale": false, "beta_initializer": {"class_name": "Zeros", "config": {}}, "gamma_initializer": {"class_name": "Ones", "config": {}}, "moving_mean_initializer": {"class_name": "Zeros", "config": {}}, "moving_variance_initializer": {"class_name": "Ones", "config": {}}, "beta_regularizer": null, "gamma_regularizer": null, "beta_constraint": null, "gamma_constraint": null}, "inbound_nodes": [[["Block35_4_Branch_1_Conv2d_0a_1x1", 0, 0, {}]]]}, {"name": "Block35_4_Branch_2_Conv2d_0b_3x3_BatchNorm", "class_name": "BatchNormalization", "config": {"name": "Block35_4_Branch_2_Conv2d_0b_3x3_BatchNorm", "trainable": true, "dtype": "float32", "axis": 3, "momentum": 0.995, "epsilon": 0.001, "center": true, "scale": false, "beta_initializer": {"class_name": "Zeros", "config": {}}, "gamma_initializer": {"class_name": "Ones", "config": {}}, "moving_mean_initializer": {"class_name": "Zeros", "config": {}}, "moving_variance_initializer": {"class_name": "Ones", "config": {}}, "beta_regularizer": null, "gamma_regularizer": null, "beta_constraint": null, "gamma_constraint": null}, "inbound_nodes": [[["Block35_4_Branch_2_Conv2d_0b_3x3", 0, 0, {}]]]}, {"name": "Block35_4_Branch_1_Conv2d_0a_1x1_Activation", "class_name": "Activation", "config": {"name": "Block35_4_Branch_1_Conv2d_0a_1x1_Activation", "trainable": true, "dtype": "float32", "activation": "relu"}, "inbound_nodes": [[["Block35_4_Branch_1_Conv2d_0a_1x1_BatchNorm", 0, 0, {}]]]}, {"name": "Block35_4_Branch_2_Conv2d_0b_3x3_Activation", "class_name": "Activation", "config": {"name": "Block35_4_Branch_2_Conv2d_0b_3x3_Activation", "trainable": true, "dtype": "float32", "activation": "relu"}, "inbound_nodes": [[["Block35_4_Branch_2_Conv2d_0b_3x3_BatchNorm", 0, 0, {}]]]}, {"name": "Block35_4_Branch_0_Conv2d_1x1", "class_name": "Conv2D", "config": {"name": "Block35_4_Branch_0_Conv2d_1x1", "trainable": true, "dtype": "float32", "filters": 32, "kernel_size": [1, 1], "strides": [1, 1], "padding": "same", "data_format": "channels_last", "dilation_rate": [1, 1], "activation": "linear", "use_bias": false, "kernel_initializer": {"class_name": "VarianceScaling", "config": {"scale": 1.0, "mode": "fan_avg", "distribution": "uniform", "seed": null}}, "bias_initializer": {"class_name": "Zeros", "config": {}}, "kernel_regularizer": null, "bias_regularizer": null, "activity_regularizer": null, "kernel_constraint": null, "bias_constraint": null}, "inbound_nodes": [[["Block35_3_Activation", 0, 0, {}]]]}, {"name": "Block35_4_Branch_1_Conv2d_0b_3x3", "class_name": "Conv2D", "config": {"name": "Block35_4_Branch_1_Conv2d_0b_3x3", "trainable": true, "dtype": "float32", "filters": 32, "kernel_size": [3, 3], "strides": [1, 1], "padding": "same", "data_format": "channels_last", "dilation_rate": [1, 1], "activation": "linear", "use_bias": false, "kernel_initializer": {"class_name": "VarianceScaling", "config": {"scale": 1.0, "mode": "fan_avg", "distribution": "uniform", "seed": null}}, "bias_initializer": {"class_name": "Zeros", "config": {}}, "kernel_regularizer": null, "bias_regularizer": null, "activity_regularizer": null, "kernel_constraint": null, "bias_constraint": null}, "inbound_nodes": [[["Block35_4_Branch_1_Conv2d_0a_1x1_Activation", 0, 0, {}]]]}, {"name": "Block35_4_Branch_2_Conv2d_0c_3x3", "class_name": "Conv2D", "config": {"name": "Block35_4_Branch_2_Conv2d_0c_3x3", "trainable": true, "dtype": "float32", "filters": 32, "kernel_size": [3, 3], "strides": [1, 1], "padding": "same", "data_format": "channels_last", "dilation_rate": [1, 1], "activation": "linear", "use_bias": false, "kernel_initializer": {"class_name": "VarianceScaling", "config": {"scale": 1.0, "mode": "fan_avg", "distribution": "uniform", "seed": null}}, "bias_initializer": {"class_name": "Zeros", "config": {}}, "kernel_regularizer": null, "bias_regularizer": null, "activity_regularizer": null, "kernel_constraint": null, "bias_constraint": null}, "inbound_nodes": [[["Block35_4_Branch_2_Conv2d_0b_3x3_Activation", 0, 0, {}]]]}, {"name": "Block35_4_Branch_0_Conv2d_1x1_BatchNorm", "class_name": "BatchNormalization", "config": {"name": "Block35_4_Branch_0_Conv2d_1x1_BatchNorm", "trainable": true, "dtype": "float32", "axis": 3, "momentum": 0.995, "epsilon": 0.001, "center": true, "scale": false, "beta_initializer": {"class_name": "Zeros", "config": {}}, "gamma_initializer": {"class_name": "Ones", "config": {}}, "moving_mean_initializer": {"class_name": "Zeros", "config": {}}, "moving_variance_initializer": {"class_name": "Ones", "config": {}}, "beta_regularizer": null, "gamma_regularizer": null, "beta_constraint": null, "gamma_constraint": null}, "inbound_nodes": [[["Block35_4_Branch_0_Conv2d_1x1", 0, 0, {}]]]}, {"name": "Block35_4_Branch_1_Conv2d_0b_3x3_BatchNorm", "class_name": "BatchNormalization", "config": {"name": "Block35_4_Branch_1_Conv2d_0b_3x3_BatchNorm", "trainable": true, "dtype": "float32", "axis": 3, "momentum": 0.995, "epsilon": 0.001, "center": true, "scale": false, "beta_initializer": {"class_name": "Zeros", "config": {}}, "gamma_initializer": {"class_name": "Ones", "config": {}}, "moving_mean_initializer": {"class_name": "Zeros", "config": {}}, "moving_variance_initializer": {"class_name": "Ones", "config": {}}, "beta_regularizer": null, "gamma_regularizer": null, "beta_constraint": null, "gamma_constraint": null}, "inbound_nodes": [[["Block35_4_Branch_1_Conv2d_0b_3x3", 0, 0, {}]]]}, {"name": "Block35_4_Branch_2_Conv2d_0c_3x3_BatchNorm", "class_name": "BatchNormalization", "config": {"name": "Block35_4_Branch_2_Conv2d_0c_3x3_BatchNorm", "trainable": true, "dtype": "float32", "axis": 3, "momentum": 0.995, "epsilon": 0.001, "center": true, "scale": false, "beta_initializer": {"class_name": "Zeros", "config": {}}, "gamma_initializer": {"class_name": "Ones", "config": {}}, "moving_mean_initializer": {"class_name": "Zeros", "config": {}}, "moving_variance_initializer": {"class_name": "Ones", "config": {}}, "beta_regularizer": null, "gamma_regularizer": null, "beta_constraint": null, "gamma_constraint": null}, "inbound_nodes": [[["Block35_4_Branch_2_Conv2d_0c_3x3", 0, 0, {}]]]}, {"name": "Block35_4_Branch_0_Conv2d_1x1_Activation", "class_name": "Activation", "config": {"name": "Block35_4_Branch_0_Conv2d_1x1_Activation", "trainable": true, "dtype": "float32", "activation": "relu"}, "inbound_nodes": [[["Block35_4_Branch_0_Conv2d_1x1_BatchNorm", 0, 0, {}]]]}, {"name": "Block35_4_Branch_1_Conv2d_0b_3x3_Activation", "class_name": "Activation", "config": {"name": "Block35_4_Branch_1_Conv2d_0b_3x3_Activation", "trainable": true, "dtype": "float32", "activation": "relu"}, "inbound_nodes": [[["Block35_4_Branch_1_Conv2d_0b_3x3_BatchNorm", 0, 0, {}]]]}, {"name": "Block35_4_Branch_2_Conv2d_0c_3x3_Activation", "class_name": "Activation", "config": {"name": "Block35_4_Branch_2_Conv2d_0c_3x3_Activation", "trainable": true, "dtype": "float32", "activation": "relu"}, "inbound_nodes": [[["Block35_4_Branch_2_Conv2d_0c_3x3_BatchNorm", 0, 0, {}]]]}, {"name": "Block35_4_Concatenate", "class_name": "Concatenate", "config": {"name": "Block35_4_Concatenate", "trainable": true, "dtype": "float32", "axis": 3}, "inbound_nodes": [[["Block35_4_Branch_0_Conv2d_1x1_Activation", 0, 0, {}], ["Block35_4_Branch_1_Conv2d_0b_3x3_Activation", 0, 0, {}], ["Block35_4_Branch_2_Conv2d_0c_3x3_Activation", 0, 0, {}]]]}, {"name": "Block35_4_Conv2d_1x1", "class_name": "Conv2D", "config": {"name": "Block35_4_Conv2d_1x1", "trainable": true, "dtype": "float32", "filters": 256, "kernel_size": [1, 1], "strides": [1, 1], "padding": "same", "data_format": "channels_last", "dilation_rate": [1, 1], "activation": "linear", "use_bias": true, "kernel_initializer": {"class_name": "VarianceScaling", "config": {"scale": 1.0, "mode": "fan_avg", "distribution": "uniform", "seed": null}}, "bias_initializer": {"class_name": "Zeros", "config": {}}, "kernel_regularizer": null, "bias_regularizer": null, "activity_regularizer": null, "kernel_constraint": null, "bias_constraint": null}, "inbound_nodes": [[["Block35_4_Concatenate", 0, 0, {}]]]}, {"name": "lambda_54", "class_name": "Lambda017", "config": {"name": "lambda_54", "trainable": true, "dtype": "float32", "function": ["4wIAAAAAAAAAAgAAAAIAAABDAAAAcwgAAAB8AHwBFABTACkBTqkAKQLaAXjaBXNjYWxlcgEAAABy\nAQAAAPpSQzpcVXNlcnNcMVxEZXNrdG9wXHRlbnNvcmZsb3dca2VyYXMtZmFjZW5ldC1tYXN0ZXJc\nbm90ZWJvb2tcaW5jZXB0aW9uX3Jlc25ldF92MS5wedoHc2NhbGluZxkAAABzAgAAAAAB\n", null, null], "function_type": "lambda", "output_shape": [17, 17, 256], "output_shape_type": "raw", "arguments": {"scale": 0.17}}, "inbound_nodes": [[["Block35_4_Conv2d_1x1", 0, 0, {}]]]}, {"name": "add_46", "class_name": "Add", "config": {"name": "add_46", "trainable": true, "dtype": "float32"}, "inbound_nodes": [[["Block35_3_Activation", 0, 0, {}], ["lambda_54", 0, 0, {}]]]}, {"name": "Block35_4_Activation", "class_name": "Activation", "config": {"name": "Block35_4_Activation", "trainable": true, "dtype": "float32", "activation": "relu"}, "inbound_nodes": [[["add_46", 0, 0, {}]]]}, {"name": "Block35_5_Branch_2_Conv2d_0a_1x1", "class_name": "Conv2D", "config": {"name": "Block35_5_Branch_2_Conv2d_0a_1x1", "trainable": true, "dtype": "float32", "filters": 32, "kernel_size": [1, 1], "strides": [1, 1], "padding": "same", "data_format": "channels_last", "dilation_rate": [1, 1], "activation": "linear", "use_bias": false, "kernel_initializer": {"class_name": "VarianceScaling", "config": {"scale": 1.0, "mode": "fan_avg", "distribution": "uniform", "seed": null}}, "bias_initializer": {"class_name": "Zeros", "config": {}}, "kernel_regularizer": null, "bias_regularizer": null, "activity_regularizer": null, "kernel_constraint": null, "bias_constraint": null}, "inbound_nodes": [[["Block35_4_Activation", 0, 0, {}]]]}, {"name": "Block35_5_Branch_2_Conv2d_0a_1x1_BatchNorm", "class_name": "BatchNormalization", "config": {"name": "Block35_5_Branch_2_Conv2d_0a_1x1_BatchNorm", "trainable": true, "dtype": "float32", "axis": 3, "momentum": 0.995, "epsilon": 0.001, "center": true, "scale": false, "beta_initializer": {"class_name": "Zeros", "config": {}}, "gamma_initializer": {"class_name": "Ones", "config": {}}, "moving_mean_initializer": {"class_name": "Zeros", "config": {}}, "moving_variance_initializer": {"class_name": "Ones", "config": {}}, "beta_regularizer": null, "gamma_regularizer": null, "beta_constraint": null, "gamma_constraint": null}, "inbound_nodes": [[["Block35_5_Branch_2_Conv2d_0a_1x1", 0, 0, {}]]]}, {"name": "Block35_5_Branch_2_Conv2d_0a_1x1_Activation", "class_name": "Activation", "config": {"name": "Block35_5_Branch_2_Conv2d_0a_1x1_Activation", "trainable": true, "dtype": "float32", "activation": "relu"}, "inbound_nodes": [[["Block35_5_Branch_2_Conv2d_0a_1x1_BatchNorm", 0, 0, {}]]]}, {"name": "Block35_5_Branch_1_Conv2d_0a_1x1", "class_name": "Conv2D", "config": {"name": "Block35_5_Branch_1_Conv2d_0a_1x1", "trainable": true, "dtype": "float32", "filters": 32, "kernel_size": [1, 1], "strides": [1, 1], "padding": "same", "data_format": "channels_last", "dilation_rate": [1, 1], "activation": "linear", "use_bias": false, "kernel_initializer": {"class_name": "VarianceScaling", "config": {"scale": 1.0, "mode": "fan_avg", "distribution": "uniform", "seed": null}}, "bias_initializer": {"class_name": "Zeros", "config": {}}, "kernel_regularizer": null, "bias_regularizer": null, "activity_regularizer": null, "kernel_constraint": null, "bias_constraint": null}, "inbound_nodes": [[["Block35_4_Activation", 0, 0, {}]]]}, {"name": "Block35_5_Branch_2_Conv2d_0b_3x3", "class_name": "Conv2D", "config": {"name": "Block35_5_Branch_2_Conv2d_0b_3x3", "trainable": true, "dtype": "float32", "filters": 32, "kernel_size": [3, 3], "strides": [1, 1], "padding": "same", "data_format": "channels_last", "dilation_rate": [1, 1], "activation": "linear", "use_bias": false, "kernel_initializer": {"class_name": "VarianceScaling", "config": {"scale": 1.0, "mode": "fan_avg", "distribution": "uniform", "seed": null}}, "bias_initializer": {"class_name": "Zeros", "config": {}}, "kernel_regularizer": null, "bias_regularizer": null, "activity_regularizer": null, "kernel_constraint": null, "bias_constraint": null}, "inbound_nodes": [[["Block35_5_Branch_2_Conv2d_0a_1x1_Activation", 0, 0, {}]]]}, {"name": "Block35_5_Branch_1_Conv2d_0a_1x1_BatchNorm", "class_name": "BatchNormalization", "config": {"name": "Block35_5_Branch_1_Conv2d_0a_1x1_BatchNorm", "trainable": true, "dtype": "float32", "axis": 3, "momentum": 0.995, "epsilon": 0.001, "center": true, "scale": false, "beta_initializer": {"class_name": "Zeros", "config": {}}, "gamma_initializer": {"class_name": "Ones", "config": {}}, "moving_mean_initializer": {"class_name": "Zeros", "config": {}}, "moving_variance_initializer": {"class_name": "Ones", "config": {}}, "beta_regularizer": null, "gamma_regularizer": null, "beta_constraint": null, "gamma_constraint": null}, "inbound_nodes": [[["Block35_5_Branch_1_Conv2d_0a_1x1", 0, 0, {}]]]}, {"name": "Block35_5_Branch_2_Conv2d_0b_3x3_BatchNorm", "class_name": "BatchNormalization", "config": {"name": "Block35_5_Branch_2_Conv2d_0b_3x3_BatchNorm", "trainable": true, "dtype": "float32", "axis": 3, "momentum": 0.995, "epsilon": 0.001, "center": true, "scale": false, "beta_initializer": {"class_name": "Zeros", "config": {}}, "gamma_initializer": {"class_name": "Ones", "config": {}}, "moving_mean_initializer": {"class_name": "Zeros", "config": {}}, "moving_variance_initializer": {"class_name": "Ones", "config": {}}, "beta_regularizer": null, "gamma_regularizer": null, "beta_constraint": null, "gamma_constraint": null}, "inbound_nodes": [[["Block35_5_Branch_2_Conv2d_0b_3x3", 0, 0, {}]]]}, {"name": "Block35_5_Branch_1_Conv2d_0a_1x1_Activation", "class_name": "Activation", "config": {"name": "Block35_5_Branch_1_Conv2d_0a_1x1_Activation", "trainable": true, "dtype": "float32", "activation": "relu"}, "inbound_nodes": [[["Block35_5_Branch_1_Conv2d_0a_1x1_BatchNorm", 0, 0, {}]]]}, {"name": "Block35_5_Branch_2_Conv2d_0b_3x3_Activation", "class_name": "Activation", "config": {"name": "Block35_5_Branch_2_Conv2d_0b_3x3_Activation", "trainable": true, "dtype": "float32", "activation": "relu"}, "inbound_nodes": [[["Block35_5_Branch_2_Conv2d_0b_3x3_BatchNorm", 0, 0, {}]]]}, {"name": "Block35_5_Branch_0_Conv2d_1x1", "class_name": "Conv2D", "config": {"name": "Block35_5_Branch_0_Conv2d_1x1", "trainable": true, "dtype": "float32", "filters": 32, "kernel_size": [1, 1], "strides": [1, 1], "padding": "same", "data_format": "channels_last", "dilation_rate": [1, 1], "activation": "linear", "use_bias": false, "kernel_initializer": {"class_name": "VarianceScaling", "config": {"scale": 1.0, "mode": "fan_avg", "distribution": "uniform", "seed": null}}, "bias_initializer": {"class_name": "Zeros", "config": {}}, "kernel_regularizer": null, "bias_regularizer": null, "activity_regularizer": null, "kernel_constraint": null, "bias_constraint": null}, "inbound_nodes": [[["Block35_4_Activation", 0, 0, {}]]]}, {"name": "Block35_5_Branch_1_Conv2d_0b_3x3", "class_name": "Conv2D", "config": {"name": "Block35_5_Branch_1_Conv2d_0b_3x3", "trainable": true, "dtype": "float32", "filters": 32, "kernel_size": [3, 3], "strides": [1, 1], "padding": "same", "data_format": "channels_last", "dilation_rate": [1, 1], "activation": "linear", "use_bias": false, "kernel_initializer": {"class_name": "VarianceScaling", "config": {"scale": 1.0, "mode": "fan_avg", "distribution": "uniform", "seed": null}}, "bias_initializer": {"class_name": "Zeros", "config": {}}, "kernel_regularizer": null, "bias_regularizer": null, "activity_regularizer": null, "kernel_constraint": null, "bias_constraint": null}, "inbound_nodes": [[["Block35_5_Branch_1_Conv2d_0a_1x1_Activation", 0, 0, {}]]]}, {"name": "Block35_5_Branch_2_Conv2d_0c_3x3", "class_name": "Conv2D", "config": {"name": "Block35_5_Branch_2_Conv2d_0c_3x3", "trainable": true, "dtype": "float32", "filters": 32, "kernel_size": [3, 3], "strides": [1, 1], "padding": "same", "data_format": "channels_last", "dilation_rate": [1, 1], "activation": "linear", "use_bias": false, "kernel_initializer": {"class_name": "VarianceScaling", "config": {"scale": 1.0, "mode": "fan_avg", "distribution": "uniform", "seed": null}}, "bias_initializer": {"class_name": "Zeros", "config": {}}, "kernel_regularizer": null, "bias_regularizer": null, "activity_regularizer": null, "kernel_constraint": null, "bias_constraint": null}, "inbound_nodes": [[["Block35_5_Branch_2_Conv2d_0b_3x3_Activation", 0, 0, {}]]]}, {"name": "Block35_5_Branch_0_Conv2d_1x1_BatchNorm", "class_name": "BatchNormalization", "config": {"name": "Block35_5_Branch_0_Conv2d_1x1_BatchNorm", "trainable": true, "dtype": "float32", "axis": 3, "momentum": 0.995, "epsilon": 0.001, "center": true, "scale": false, "beta_initializer": {"class_name": "Zeros", "config": {}}, "gamma_initializer": {"class_name": "Ones", "config": {}}, "moving_mean_initializer": {"class_name": "Zeros", "config": {}}, "moving_variance_initializer": {"class_name": "Ones", "config": {}}, "beta_regularizer": null, "gamma_regularizer": null, "beta_constraint": null, "gamma_constraint": null}, "inbound_nodes": [[["Block35_5_Branch_0_Conv2d_1x1", 0, 0, {}]]]}, {"name": "Block35_5_Branch_1_Conv2d_0b_3x3_BatchNorm", "class_name": "BatchNormalization", "config": {"name": "Block35_5_Branch_1_Conv2d_0b_3x3_BatchNorm", "trainable": true, "dtype": "float32", "axis": 3, "momentum": 0.995, "epsilon": 0.001, "center": true, "scale": false, "beta_initializer": {"class_name": "Zeros", "config": {}}, "gamma_initializer": {"class_name": "Ones", "config": {}}, "moving_mean_initializer": {"class_name": "Zeros", "config": {}}, "moving_variance_initializer": {"class_name": "Ones", "config": {}}, "beta_regularizer": null, "gamma_regularizer": null, "beta_constraint": null, "gamma_constraint": null}, "inbound_nodes": [[["Block35_5_Branch_1_Conv2d_0b_3x3", 0, 0, {}]]]}, {"name": "Block35_5_Branch_2_Conv2d_0c_3x3_BatchNorm", "class_name": "BatchNormalization", "config": {"name": "Block35_5_Branch_2_Conv2d_0c_3x3_BatchNorm", "trainable": true, "dtype": "float32", "axis": 3, "momentum": 0.995, "epsilon": 0.001, "center": true, "scale": false, "beta_initializer": {"class_name": "Zeros", "config": {}}, "gamma_initializer": {"class_name": "Ones", "config": {}}, "moving_mean_initializer": {"class_name": "Zeros", "config": {}}, "moving_variance_initializer": {"class_name": "Ones", "config": {}}, "beta_regularizer": null, "gamma_regularizer": null, "beta_constraint": null, "gamma_constraint": null}, "inbound_nodes": [[["Block35_5_Branch_2_Conv2d_0c_3x3", 0, 0, {}]]]}, {"name": "Block35_5_Branch_0_Conv2d_1x1_Activation", "class_name": "Activation", "config": {"name": "Block35_5_Branch_0_Conv2d_1x1_Activation", "trainable": true, "dtype": "float32", "activation": "relu"}, "inbound_nodes": [[["Block35_5_Branch_0_Conv2d_1x1_BatchNorm", 0, 0, {}]]]}, {"name": "Block35_5_Branch_1_Conv2d_0b_3x3_Activation", "class_name": "Activation", "config": {"name": "Block35_5_Branch_1_Conv2d_0b_3x3_Activation", "trainable": true, "dtype": "float32", "activation": "relu"}, "inbound_nodes": [[["Block35_5_Branch_1_Conv2d_0b_3x3_BatchNorm", 0, 0, {}]]]}, {"name": "Block35_5_Branch_2_Conv2d_0c_3x3_Activation", "class_name": "Activation", "config": {"name": "Block35_5_Branch_2_Conv2d_0c_3x3_Activation", "trainable": true, "dtype": "float32", "activation": "relu"}, "inbound_nodes": [[["Block35_5_Branch_2_Conv2d_0c_3x3_BatchNorm", 0, 0, {}]]]}, {"name": "Block35_5_Concatenate", "class_name": "Concatenate", "config": {"name": "Block35_5_Concatenate", "trainable": true, "dtype": "float32", "axis": 3}, "inbound_nodes": [[["Block35_5_Branch_0_Conv2d_1x1_Activation", 0, 0, {}], ["Block35_5_Branch_1_Conv2d_0b_3x3_Activation", 0, 0, {}], ["Block35_5_Branch_2_Conv2d_0c_3x3_Activation", 0, 0, {}]]]}, {"name": "Block35_5_Conv2d_1x1", "class_name": "Conv2D", "config": {"name": "Block35_5_Conv2d_1x1", "trainable": true, "dtype": "float32", "filters": 256, "kernel_size": [1, 1], "strides": [1, 1], "padding": "same", "data_format": "channels_last", "dilation_rate": [1, 1], "activation": "linear", "use_bias": true, "kernel_initializer": {"class_name": "VarianceScaling", "config": {"scale": 1.0, "mode": "fan_avg", "distribution": "uniform", "seed": null}}, "bias_initializer": {"class_name": "Zeros", "config": {}}, "kernel_regularizer": null, "bias_regularizer": null, "activity_regularizer": null, "kernel_constraint": null, "bias_constraint": null}, "inbound_nodes": [[["Block35_5_Concatenate", 0, 0, {}]]]}, {"name": "lambda_55", "class_name": "Lambda017", "config": {"name": "lambda_55", "trainable": true, "dtype": "float32", "function": ["4wIAAAAAAAAAAgAAAAIAAABDAAAAcwgAAAB8AHwBFABTACkBTqkAKQLaAXjaBXNjYWxlcgEAAABy\nAQAAAPpSQzpcVXNlcnNcMVxEZXNrdG9wXHRlbnNvcmZsb3dca2VyYXMtZmFjZW5ldC1tYXN0ZXJc\nbm90ZWJvb2tcaW5jZXB0aW9uX3Jlc25ldF92MS5wedoHc2NhbGluZxkAAABzAgAAAAAB\n", null, null], "function_type": "lambda", "output_shape": [17, 17, 256], "output_shape_type": "raw", "arguments": {"scale": 0.17}}, "inbound_nodes": [[["Block35_5_Conv2d_1x1", 0, 0, {}]]]}, {"name": "add_47", "class_name": "Add", "config": {"name": "add_47", "trainable": true, "dtype": "float32"}, "inbound_nodes": [[["Block35_4_Activation", 0, 0, {}], ["lambda_55", 0, 0, {}]]]}, {"name": "Block35_5_Activation", "class_name": "Activation", "config": {"name": "Block35_5_Activation", "trainable": true, "dtype": "float32", "activation": "relu"}, "inbound_nodes": [[["add_47", 0, 0, {}]]]}, {"name": "Mixed_6a_Branch_1_Conv2d_0a_1x1", "class_name": "Conv2D", "config": {"name": "Mixed_6a_Branch_1_Conv2d_0a_1x1", "trainable": true, "dtype": "float32", "filters": 192, "kernel_size": [1, 1], "strides": [1, 1], "padding": "same", "data_format": "channels_last", "dilation_rate": [1, 1], "activation": "linear", "use_bias": false, "kernel_initializer": {"class_name": "VarianceScaling", "config": {"scale": 1.0, "mode": "fan_avg", "distribution": "uniform", "seed": null}}, "bias_initializer": {"class_name": "Zeros", "config": {}}, "kernel_regularizer": null, "bias_regularizer": null, "activity_regularizer": null, "kernel_constraint": null, "bias_constraint": null}, "inbound_nodes": [[["Block35_5_Activation", 0, 0, {}]]]}, {"name": "Mixed_6a_Branch_1_Conv2d_0a_1x1_BatchNorm", "class_name": "BatchNormalization", "config": {"name": "Mixed_6a_Branch_1_Conv2d_0a_1x1_BatchNorm", "trainable": true, "dtype": "float32", "axis": 3, "momentum": 0.995, "epsilon": 0.001, "center": true, "scale": false, "beta_initializer": {"class_name": "Zeros", "config": {}}, "gamma_initializer": {"class_name": "Ones", "config": {}}, "moving_mean_initializer": {"class_name": "Zeros", "config": {}}, "moving_variance_initializer": {"class_name": "Ones", "config": {}}, "beta_regularizer": null, "gamma_regularizer": null, "beta_constraint": null, "gamma_constraint": null}, "inbound_nodes": [[["Mixed_6a_Branch_1_Conv2d_0a_1x1", 0, 0, {}]]]}, {"name": "Mixed_6a_Branch_1_Conv2d_0a_1x1_Activation", "class_name": "Activation", "config": {"name": "Mixed_6a_Branch_1_Conv2d_0a_1x1_Activation", "trainable": true, "dtype": "float32", "activation": "relu"}, "inbound_nodes": [[["Mixed_6a_Branch_1_Conv2d_0a_1x1_BatchNorm", 0, 0, {}]]]}, {"name": "Mixed_6a_Branch_1_Conv2d_0b_3x3", "class_name": "Conv2D", "config": {"name": "Mixed_6a_Branch_1_Conv2d_0b_3x3", "trainable": true, "dtype": "float32", "filters": 192, "kernel_size": [3, 3], "strides": [1, 1], "padding": "same", "data_format": "channels_last", "dilation_rate": [1, 1], "activation": "linear", "use_bias": false, "kernel_initializer": {"class_name": "VarianceScaling", "config": {"scale": 1.0, "mode": "fan_avg", "distribution": "uniform", "seed": null}}, "bias_initializer": {"class_name": "Zeros", "config": {}}, "kernel_regularizer": null, "bias_regularizer": null, "activity_regularizer": null, "kernel_constraint": null, "bias_constraint": null}, "inbound_nodes": [[["Mixed_6a_Branch_1_Conv2d_0a_1x1_Activation", 0, 0, {}]]]}, {"name": "Mixed_6a_Branch_1_Conv2d_0b_3x3_BatchNorm", "class_name": "BatchNormalization", "config": {"name": "Mixed_6a_Branch_1_Conv2d_0b_3x3_BatchNorm", "trainable": true, "dtype": "float32", "axis": 3, "momentum": 0.995, "epsilon": 0.001, "center": true, "scale": false, "beta_initializer": {"class_name": "Zeros", "config": {}}, "gamma_initializer": {"class_name": "Ones", "config": {}}, "moving_mean_initializer": {"class_name": "Zeros", "config": {}}, "moving_variance_initializer": {"class_name": "Ones", "config": {}}, "beta_regularizer": null, "gamma_regularizer": null, "beta_constraint": null, "gamma_constraint": null}, "inbound_nodes": [[["Mixed_6a_Branch_1_Conv2d_0b_3x3", 0, 0, {}]]]}, {"name": "Mixed_6a_Branch_1_Conv2d_0b_3x3_Activation", "class_name": "Activation", "config": {"name": "Mixed_6a_Branch_1_Conv2d_0b_3x3_Activation", "trainable": true, "dtype": "float32", "activation": "relu"}, "inbound_nodes": [[["Mixed_6a_Branch_1_Conv2d_0b_3x3_BatchNorm", 0, 0, {}]]]}, {"name": "Mixed_6a_Branch_0_Conv2d_1a_3x3", "class_name": "Conv2D", "config": {"name": "Mixed_6a_Branch_0_Conv2d_1a_3x3", "trainable": true, "dtype": "float32", "filters": 384, "kernel_size": [3, 3], "strides": [2, 2], "padding": "valid", "data_format": "channels_last", "dilation_rate": [1, 1], "activation": "linear", "use_bias": false, "kernel_initializer": {"class_name": "VarianceScaling", "config": {"scale": 1.0, "mode": "fan_avg", "distribution": "uniform", "seed": null}}, "bias_initializer": {"class_name": "Zeros", "config": {}}, "kernel_regularizer": null, "bias_regularizer": null, "activity_regularizer": null, "kernel_constraint": null, "bias_constraint": null}, "inbound_nodes": [[["Block35_5_Activation", 0, 0, {}]]]}, {"name": "Mixed_6a_Branch_1_Conv2d_1a_3x3", "class_name": "Conv2D", "config": {"name": "Mixed_6a_Branch_1_Conv2d_1a_3x3", "trainable": true, "dtype": "float32", "filters": 256, "kernel_size": [3, 3], "strides": [2, 2], "padding": "valid", "data_format": "channels_last", "dilation_rate": [1, 1], "activation": "linear", "use_bias": false, "kernel_initializer": {"class_name": "VarianceScaling", "config": {"scale": 1.0, "mode": "fan_avg", "distribution": "uniform", "seed": null}}, "bias_initializer": {"class_name": "Zeros", "config": {}}, "kernel_regularizer": null, "bias_regularizer": null, "activity_regularizer": null, "kernel_constraint": null, "bias_constraint": null}, "inbound_nodes": [[["Mixed_6a_Branch_1_Conv2d_0b_3x3_Activation", 0, 0, {}]]]}, {"name": "Mixed_6a_Branch_0_Conv2d_1a_3x3_BatchNorm", "class_name": "BatchNormalization", "config": {"name": "Mixed_6a_Branch_0_Conv2d_1a_3x3_BatchNorm", "trainable": true, "dtype": "float32", "axis": 3, "momentum": 0.995, "epsilon": 0.001, "center": true, "scale": false, "beta_initializer": {"class_name": "Zeros", "config": {}}, "gamma_initializer": {"class_name": "Ones", "config": {}}, "moving_mean_initializer": {"class_name": "Zeros", "config": {}}, "moving_variance_initializer": {"class_name": "Ones", "config": {}}, "beta_regularizer": null, "gamma_regularizer": null, "beta_constraint": null, "gamma_constraint": null}, "inbound_nodes": [[["Mixed_6a_Branch_0_Conv2d_1a_3x3", 0, 0, {}]]]}, {"name": "Mixed_6a_Branch_1_Conv2d_1a_3x3_BatchNorm", "class_name": "BatchNormalization", "config": {"name": "Mixed_6a_Branch_1_Conv2d_1a_3x3_BatchNorm", "trainable": true, "dtype": "float32", "axis": 3, "momentum": 0.995, "epsilon": 0.001, "center": true, "scale": false, "beta_initializer": {"class_name": "Zeros", "config": {}}, "gamma_initializer": {"class_name": "Ones", "config": {}}, "moving_mean_initializer": {"class_name": "Zeros", "config": {}}, "moving_variance_initializer": {"class_name": "Ones", "config": {}}, "beta_regularizer": null, "gamma_regularizer": null, "beta_constraint": null, "gamma_constraint": null}, "inbound_nodes": [[["Mixed_6a_Branch_1_Conv2d_1a_3x3", 0, 0, {}]]]}, {"name": "Mixed_6a_Branch_0_Conv2d_1a_3x3_Activation", "class_name": "Activation", "config": {"name": "Mixed_6a_Branch_0_Conv2d_1a_3x3_Activation", "trainable": true, "dtype": "float32", "activation": "relu"}, "inbound_nodes": [[["Mixed_6a_Branch_0_Conv2d_1a_3x3_BatchNorm", 0, 0, {}]]]}, {"name": "Mixed_6a_Branch_1_Conv2d_1a_3x3_Activation", "class_name": "Activation", "config": {"name": "Mixed_6a_Branch_1_Conv2d_1a_3x3_Activation", "trainable": true, "dtype": "float32", "activation": "relu"}, "inbound_nodes": [[["Mixed_6a_Branch_1_Conv2d_1a_3x3_BatchNorm", 0, 0, {}]]]}, {"name": "Mixed_6a_Branch_2_MaxPool_1a_3x3", "class_name": "MaxPooling2D", "config": {"name": "Mixed_6a_Branch_2_MaxPool_1a_3x3", "trainable": true, "dtype": "float32", "pool_size": [3, 3], "padding": "valid", "strides": [2, 2], "data_format": "channels_last"}, "inbound_nodes": [[["Block35_5_Activation", 0, 0, {}]]]}, {"name": "Mixed_6a", "class_name": "Concatenate", "config": {"name": "Mixed_6a", "trainable": true, "dtype": "float32", "axis": 3}, "inbound_nodes": [[["Mixed_6a_Branch_0_Conv2d_1a_3x3_Activation", 0, 0, {}], ["Mixed_6a_Branch_1_Conv2d_1a_3x3_Activation", 0, 0, {}], ["Mixed_6a_Branch_2_MaxPool_1a_3x3", 0, 0, {}]]]}, {"name": "Block17_1_Branch_1_Conv2d_0a_1x1", "class_name": "Conv2D", "config": {"name": "Block17_1_Branch_1_Conv2d_0a_1x1", "trainable": true, "dtype": "float32", "filters": 128, "kernel_size": [1, 1], "strides": [1, 1], "padding": "same", "data_format": "channels_last", "dilation_rate": [1, 1], "activation": "linear", "use_bias": false, "kernel_initializer": {"class_name": "VarianceScaling", "config": {"scale": 1.0, "mode": "fan_avg", "distribution": "uniform", "seed": null}}, "bias_initializer": {"class_name": "Zeros", "config": {}}, "kernel_regularizer": null, "bias_regularizer": null, "activity_regularizer": null, "kernel_constraint": null, "bias_constraint": null}, "inbound_nodes": [[["Mixed_6a", 0, 0, {}]]]}, {"name": "Block17_1_Branch_1_Conv2d_0a_1x1_BatchNorm", "class_name": "BatchNormalization", "config": {"name": "Block17_1_Branch_1_Conv2d_0a_1x1_BatchNorm", "trainable": true, "dtype": "float32", "axis": 3, "momentum": 0.995, "epsilon": 0.001, "center": true, "scale": false, "beta_initializer": {"class_name": "Zeros", "config": {}}, "gamma_initializer": {"class_name": "Ones", "config": {}}, "moving_mean_initializer": {"class_name": "Zeros", "config": {}}, "moving_variance_initializer": {"class_name": "Ones", "config": {}}, "beta_regularizer": null, "gamma_regularizer": null, "beta_constraint": null, "gamma_constraint": null}, "inbound_nodes": [[["Block17_1_Branch_1_Conv2d_0a_1x1", 0, 0, {}]]]}, {"name": "Block17_1_Branch_1_Conv2d_0a_1x1_Activation", "class_name": "Activation", "config": {"name": "Block17_1_Branch_1_Conv2d_0a_1x1_Activation", "trainable": true, "dtype": "float32", "activation": "relu"}, "inbound_nodes": [[["Block17_1_Branch_1_Conv2d_0a_1x1_BatchNorm", 0, 0, {}]]]}, {"name": "Block17_1_Branch_1_Conv2d_0b_1x7", "class_name": "Conv2D", "config": {"name": "Block17_1_Branch_1_Conv2d_0b_1x7", "trainable": true, "dtype": "float32", "filters": 128, "kernel_size": [1, 7], "strides": [1, 1], "padding": "same", "data_format": "channels_last", "dilation_rate": [1, 1], "activation": "linear", "use_bias": false, "kernel_initializer": {"class_name": "VarianceScaling", "config": {"scale": 1.0, "mode": "fan_avg", "distribution": "uniform", "seed": null}}, "bias_initializer": {"class_name": "Zeros", "config": {}}, "kernel_regularizer": null, "bias_regularizer": null, "activity_regularizer": null, "kernel_constraint": null, "bias_constraint": null}, "inbound_nodes": [[["Block17_1_Branch_1_Conv2d_0a_1x1_Activation", 0, 0, {}]]]}, {"name": "Block17_1_Branch_1_Conv2d_0b_1x7_BatchNorm", "class_name": "BatchNormalization", "config": {"name": "Block17_1_Branch_1_Conv2d_0b_1x7_BatchNorm", "trainable": true, "dtype": "float32", "axis": 3, "momentum": 0.995, "epsilon": 0.001, "center": true, "scale": false, "beta_initializer": {"class_name": "Zeros", "config": {}}, "gamma_initializer": {"class_name": "Ones", "config": {}}, "moving_mean_initializer": {"class_name": "Zeros", "config": {}}, "moving_variance_initializer": {"class_name": "Ones", "config": {}}, "beta_regularizer": null, "gamma_regularizer": null, "beta_constraint": null, "gamma_constraint": null}, "inbound_nodes": [[["Block17_1_Branch_1_Conv2d_0b_1x7", 0, 0, {}]]]}, {"name": "Block17_1_Branch_1_Conv2d_0b_1x7_Activation", "class_name": "Activation", "config": {"name": "Block17_1_Branch_1_Conv2d_0b_1x7_Activation", "trainable": true, "dtype": "float32", "activation": "relu"}, "inbound_nodes": [[["Block17_1_Branch_1_Conv2d_0b_1x7_BatchNorm", 0, 0, {}]]]}, {"name": "Block17_1_Branch_0_Conv2d_1x1", "class_name": "Conv2D", "config": {"name": "Block17_1_Branch_0_Conv2d_1x1", "trainable": true, "dtype": "float32", "filters": 128, "kernel_size": [1, 1], "strides": [1, 1], "padding": "same", "data_format": "channels_last", "dilation_rate": [1, 1], "activation": "linear", "use_bias": false, "kernel_initializer": {"class_name": "VarianceScaling", "config": {"scale": 1.0, "mode": "fan_avg", "distribution": "uniform", "seed": null}}, "bias_initializer": {"class_name": "Zeros", "config": {}}, "kernel_regularizer": null, "bias_regularizer": null, "activity_regularizer": null, "kernel_constraint": null, "bias_constraint": null}, "inbound_nodes": [[["Mixed_6a", 0, 0, {}]]]}, {"name": "Block17_1_Branch_1_Conv2d_0c_7x1", "class_name": "Conv2D", "config": {"name": "Block17_1_Branch_1_Conv2d_0c_7x1", "trainable": true, "dtype": "float32", "filters": 128, "kernel_size": [7, 1], "strides": [1, 1], "padding": "same", "data_format": "channels_last", "dilation_rate": [1, 1], "activation": "linear", "use_bias": false, "kernel_initializer": {"class_name": "VarianceScaling", "config": {"scale": 1.0, "mode": "fan_avg", "distribution": "uniform", "seed": null}}, "bias_initializer": {"class_name": "Zeros", "config": {}}, "kernel_regularizer": null, "bias_regularizer": null, "activity_regularizer": null, "kernel_constraint": null, "bias_constraint": null}, "inbound_nodes": [[["Block17_1_Branch_1_Conv2d_0b_1x7_Activation", 0, 0, {}]]]}, {"name": "Block17_1_Branch_0_Conv2d_1x1_BatchNorm", "class_name": "BatchNormalization", "config": {"name": "Block17_1_Branch_0_Conv2d_1x1_BatchNorm", "trainable": true, "dtype": "float32", "axis": 3, "momentum": 0.995, "epsilon": 0.001, "center": true, "scale": false, "beta_initializer": {"class_name": "Zeros", "config": {}}, "gamma_initializer": {"class_name": "Ones", "config": {}}, "moving_mean_initializer": {"class_name": "Zeros", "config": {}}, "moving_variance_initializer": {"class_name": "Ones", "config": {}}, "beta_regularizer": null, "gamma_regularizer": null, "beta_constraint": null, "gamma_constraint": null}, "inbound_nodes": [[["Block17_1_Branch_0_Conv2d_1x1", 0, 0, {}]]]}, {"name": "Block17_1_Branch_1_Conv2d_0c_7x1_BatchNorm", "class_name": "BatchNormalization", "config": {"name": "Block17_1_Branch_1_Conv2d_0c_7x1_BatchNorm", "trainable": true, "dtype": "float32", "axis": 3, "momentum": 0.995, "epsilon": 0.001, "center": true, "scale": false, "beta_initializer": {"class_name": "Zeros", "config": {}}, "gamma_initializer": {"class_name": "Ones", "config": {}}, "moving_mean_initializer": {"class_name": "Zeros", "config": {}}, "moving_variance_initializer": {"class_name": "Ones", "config": {}}, "beta_regularizer": null, "gamma_regularizer": null, "beta_constraint": null, "gamma_constraint": null}, "inbound_nodes": [[["Block17_1_Branch_1_Conv2d_0c_7x1", 0, 0, {}]]]}, {"name": "Block17_1_Branch_0_Conv2d_1x1_Activation", "class_name": "Activation", "config": {"name": "Block17_1_Branch_0_Conv2d_1x1_Activation", "trainable": true, "dtype": "float32", "activation": "relu"}, "inbound_nodes": [[["Block17_1_Branch_0_Conv2d_1x1_BatchNorm", 0, 0, {}]]]}, {"name": "Block17_1_Branch_1_Conv2d_0c_7x1_Activation", "class_name": "Activation", "config": {"name": "Block17_1_Branch_1_Conv2d_0c_7x1_Activation", "trainable": true, "dtype": "float32", "activation": "relu"}, "inbound_nodes": [[["Block17_1_Branch_1_Conv2d_0c_7x1_BatchNorm", 0, 0, {}]]]}, {"name": "Block17_1_Concatenate", "class_name": "Concatenate", "config": {"name": "Block17_1_Concatenate", "trainable": true, "dtype": "float32", "axis": 3}, "inbound_nodes": [[["Block17_1_Branch_0_Conv2d_1x1_Activation", 0, 0, {}], ["Block17_1_Branch_1_Conv2d_0c_7x1_Activation", 0, 0, {}]]]}, {"name": "Block17_1_Conv2d_1x1", "class_name": "Conv2D", "config": {"name": "Block17_1_Conv2d_1x1", "trainable": true, "dtype": "float32", "filters": 896, "kernel_size": [1, 1], "strides": [1, 1], "padding": "same", "data_format": "channels_last", "dilation_rate": [1, 1], "activation": "linear", "use_bias": true, "kernel_initializer": {"class_name": "VarianceScaling", "config": {"scale": 1.0, "mode": "fan_avg", "distribution": "uniform", "seed": null}}, "bias_initializer": {"class_name": "Zeros", "config": {}}, "kernel_regularizer": null, "bias_regularizer": null, "activity_regularizer": null, "kernel_constraint": null, "bias_constraint": null}, "inbound_nodes": [[["Block17_1_Concatenate", 0, 0, {}]]]}, {"name": "lambda_56", "class_name": "Lambda01", "config": {"name": "lambda_56", "trainable": true, "dtype": "float32", "function": ["4wIAAAAAAAAAAgAAAAIAAABDAAAAcwgAAAB8AHwBFABTACkBTqkAKQLaAXjaBXNjYWxlcgEAAABy\nAQAAAPpSQzpcVXNlcnNcMVxEZXNrdG9wXHRlbnNvcmZsb3dca2VyYXMtZmFjZW5ldC1tYXN0ZXJc\nbm90ZWJvb2tcaW5jZXB0aW9uX3Jlc25ldF92MS5wedoHc2NhbGluZxkAAABzAgAAAAAB\n", null, null], "function_type": "lambda", "output_shape": [8, 8, 896], "output_shape_type": "raw", "arguments": {"scale": 0.1}}, "inbound_nodes": [[["Block17_1_Conv2d_1x1", 0, 0, {}]]]}, {"name": "add_48", "class_name": "Add", "config": {"name": "add_48", "trainable": true, "dtype": "float32"}, "inbound_nodes": [[["Mixed_6a", 0, 0, {}], ["lambda_56", 0, 0, {}]]]}, {"name": "Block17_1_Activation", "class_name": "Activation", "config": {"name": "Block17_1_Activation", "trainable": true, "dtype": "float32", "activation": "relu"}, "inbound_nodes": [[["add_48", 0, 0, {}]]]}, {"name": "Block17_2_Branch_1_Conv2d_0a_1x1", "class_name": "Conv2D", "config": {"name": "Block17_2_Branch_1_Conv2d_0a_1x1", "trainable": true, "dtype": "float32", "filters": 128, "kernel_size": [1, 1], "strides": [1, 1], "padding": "same", "data_format": "channels_last", "dilation_rate": [1, 1], "activation": "linear", "use_bias": false, "kernel_initializer": {"class_name": "VarianceScaling", "config": {"scale": 1.0, "mode": "fan_avg", "distribution": "uniform", "seed": null}}, "bias_initializer": {"class_name": "Zeros", "config": {}}, "kernel_regularizer": null, "bias_regularizer": null, "activity_regularizer": null, "kernel_constraint": null, "bias_constraint": null}, "inbound_nodes": [[["Block17_1_Activation", 0, 0, {}]]]}, {"name": "Block17_2_Branch_1_Conv2d_0a_1x1_BatchNorm", "class_name": "BatchNormalization", "config": {"name": "Block17_2_Branch_1_Conv2d_0a_1x1_BatchNorm", "trainable": true, "dtype": "float32", "axis": 3, "momentum": 0.995, "epsilon": 0.001, "center": true, "scale": false, "beta_initializer": {"class_name": "Zeros", "config": {}}, "gamma_initializer": {"class_name": "Ones", "config": {}}, "moving_mean_initializer": {"class_name": "Zeros", "config": {}}, "moving_variance_initializer": {"class_name": "Ones", "config": {}}, "beta_regularizer": null, "gamma_regularizer": null, "beta_constraint": null, "gamma_constraint": null}, "inbound_nodes": [[["Block17_2_Branch_1_Conv2d_0a_1x1", 0, 0, {}]]]}, {"name": "Block17_2_Branch_1_Conv2d_0a_1x1_Activation", "class_name": "Activation", "config": {"name": "Block17_2_Branch_1_Conv2d_0a_1x1_Activation", "trainable": true, "dtype": "float32", "activation": "relu"}, "inbound_nodes": [[["Block17_2_Branch_1_Conv2d_0a_1x1_BatchNorm", 0, 0, {}]]]}, {"name": "Block17_2_Branch_1_Conv2d_0b_1x7", "class_name": "Conv2D", "config": {"name": "Block17_2_Branch_1_Conv2d_0b_1x7", "trainable": true, "dtype": "float32", "filters": 128, "kernel_size": [1, 7], "strides": [1, 1], "padding": "same", "data_format": "channels_last", "dilation_rate": [1, 1], "activation": "linear", "use_bias": false, "kernel_initializer": {"class_name": "VarianceScaling", "config": {"scale": 1.0, "mode": "fan_avg", "distribution": "uniform", "seed": null}}, "bias_initializer": {"class_name": "Zeros", "config": {}}, "kernel_regularizer": null, "bias_regularizer": null, "activity_regularizer": null, "kernel_constraint": null, "bias_constraint": null}, "inbound_nodes": [[["Block17_2_Branch_1_Conv2d_0a_1x1_Activation", 0, 0, {}]]]}, {"name": "Block17_2_Branch_1_Conv2d_0b_1x7_BatchNorm", "class_name": "BatchNormalization", "config": {"name": "Block17_2_Branch_1_Conv2d_0b_1x7_BatchNorm", "trainable": true, "dtype": "float32", "axis": 3, "momentum": 0.995, "epsilon": 0.001, "center": true, "scale": false, "beta_initializer": {"class_name": "Zeros", "config": {}}, "gamma_initializer": {"class_name": "Ones", "config": {}}, "moving_mean_initializer": {"class_name": "Zeros", "config": {}}, "moving_variance_initializer": {"class_name": "Ones", "config": {}}, "beta_regularizer": null, "gamma_regularizer": null, "beta_constraint": null, "gamma_constraint": null}, "inbound_nodes": [[["Block17_2_Branch_1_Conv2d_0b_1x7", 0, 0, {}]]]}, {"name": "Block17_2_Branch_1_Conv2d_0b_1x7_Activation", "class_name": "Activation", "config": {"name": "Block17_2_Branch_1_Conv2d_0b_1x7_Activation", "trainable": true, "dtype": "float32", "activation": "relu"}, "inbound_nodes": [[["Block17_2_Branch_1_Conv2d_0b_1x7_BatchNorm", 0, 0, {}]]]}, {"name": "Block17_2_Branch_0_Conv2d_1x1", "class_name": "Conv2D", "config": {"name": "Block17_2_Branch_0_Conv2d_1x1", "trainable": true, "dtype": "float32", "filters": 128, "kernel_size": [1, 1], "strides": [1, 1], "padding": "same", "data_format": "channels_last", "dilation_rate": [1, 1], "activation": "linear", "use_bias": false, "kernel_initializer": {"class_name": "VarianceScaling", "config": {"scale": 1.0, "mode": "fan_avg", "distribution": "uniform", "seed": null}}, "bias_initializer": {"class_name": "Zeros", "config": {}}, "kernel_regularizer": null, "bias_regularizer": null, "activity_regularizer": null, "kernel_constraint": null, "bias_constraint": null}, "inbound_nodes": [[["Block17_1_Activation", 0, 0, {}]]]}, {"name": "Block17_2_Branch_1_Conv2d_0c_7x1", "class_name": "Conv2D", "config": {"name": "Block17_2_Branch_1_Conv2d_0c_7x1", "trainable": true, "dtype": "float32", "filters": 128, "kernel_size": [7, 1], "strides": [1, 1], "padding": "same", "data_format": "channels_last", "dilation_rate": [1, 1], "activation": "linear", "use_bias": false, "kernel_initializer": {"class_name": "VarianceScaling", "config": {"scale": 1.0, "mode": "fan_avg", "distribution": "uniform", "seed": null}}, "bias_initializer": {"class_name": "Zeros", "config": {}}, "kernel_regularizer": null, "bias_regularizer": null, "activity_regularizer": null, "kernel_constraint": null, "bias_constraint": null}, "inbound_nodes": [[["Block17_2_Branch_1_Conv2d_0b_1x7_Activation", 0, 0, {}]]]}, {"name": "Block17_2_Branch_0_Conv2d_1x1_BatchNorm", "class_name": "BatchNormalization", "config": {"name": "Block17_2_Branch_0_Conv2d_1x1_BatchNorm", "trainable": true, "dtype": "float32", "axis": 3, "momentum": 0.995, "epsilon": 0.001, "center": true, "scale": false, "beta_initializer": {"class_name": "Zeros", "config": {}}, "gamma_initializer": {"class_name": "Ones", "config": {}}, "moving_mean_initializer": {"class_name": "Zeros", "config": {}}, "moving_variance_initializer": {"class_name": "Ones", "config": {}}, "beta_regularizer": null, "gamma_regularizer": null, "beta_constraint": null, "gamma_constraint": null}, "inbound_nodes": [[["Block17_2_Branch_0_Conv2d_1x1", 0, 0, {}]]]}, {"name": "Block17_2_Branch_1_Conv2d_0c_7x1_BatchNorm", "class_name": "BatchNormalization", "config": {"name": "Block17_2_Branch_1_Conv2d_0c_7x1_BatchNorm", "trainable": true, "dtype": "float32", "axis": 3, "momentum": 0.995, "epsilon": 0.001, "center": true, "scale": false, "beta_initializer": {"class_name": "Zeros", "config": {}}, "gamma_initializer": {"class_name": "Ones", "config": {}}, "moving_mean_initializer": {"class_name": "Zeros", "config": {}}, "moving_variance_initializer": {"class_name": "Ones", "config": {}}, "beta_regularizer": null, "gamma_regularizer": null, "beta_constraint": null, "gamma_constraint": null}, "inbound_nodes": [[["Block17_2_Branch_1_Conv2d_0c_7x1", 0, 0, {}]]]}, {"name": "Block17_2_Branch_0_Conv2d_1x1_Activation", "class_name": "Activation", "config": {"name": "Block17_2_Branch_0_Conv2d_1x1_Activation", "trainable": true, "dtype": "float32", "activation": "relu"}, "inbound_nodes": [[["Block17_2_Branch_0_Conv2d_1x1_BatchNorm", 0, 0, {}]]]}, {"name": "Block17_2_Branch_1_Conv2d_0c_7x1_Activation", "class_name": "Activation", "config": {"name": "Block17_2_Branch_1_Conv2d_0c_7x1_Activation", "trainable": true, "dtype": "float32", "activation": "relu"}, "inbound_nodes": [[["Block17_2_Branch_1_Conv2d_0c_7x1_BatchNorm", 0, 0, {}]]]}, {"name": "Block17_2_Concatenate", "class_name": "Concatenate", "config": {"name": "Block17_2_Concatenate", "trainable": true, "dtype": "float32", "axis": 3}, "inbound_nodes": [[["Block17_2_Branch_0_Conv2d_1x1_Activation", 0, 0, {}], ["Block17_2_Branch_1_Conv2d_0c_7x1_Activation", 0, 0, {}]]]}, {"name": "Block17_2_Conv2d_1x1", "class_name": "Conv2D", "config": {"name": "Block17_2_Conv2d_1x1", "trainable": true, "dtype": "float32", "filters": 896, "kernel_size": [1, 1], "strides": [1, 1], "padding": "same", "data_format": "channels_last", "dilation_rate": [1, 1], "activation": "linear", "use_bias": true, "kernel_initializer": {"class_name": "VarianceScaling", "config": {"scale": 1.0, "mode": "fan_avg", "distribution": "uniform", "seed": null}}, "bias_initializer": {"class_name": "Zeros", "config": {}}, "kernel_regularizer": null, "bias_regularizer": null, "activity_regularizer": null, "kernel_constraint": null, "bias_constraint": null}, "inbound_nodes": [[["Block17_2_Concatenate", 0, 0, {}]]]}, {"name": "lambda_57", "class_name": "Lambda01", "config": {"name": "lambda_57", "trainable": true, "dtype": "float32", "function": ["4wIAAAAAAAAAAgAAAAIAAABDAAAAcwgAAAB8AHwBFABTACkBTqkAKQLaAXjaBXNjYWxlcgEAAABy\nAQAAAPpSQzpcVXNlcnNcMVxEZXNrdG9wXHRlbnNvcmZsb3dca2VyYXMtZmFjZW5ldC1tYXN0ZXJc\nbm90ZWJvb2tcaW5jZXB0aW9uX3Jlc25ldF92MS5wedoHc2NhbGluZxkAAABzAgAAAAAB\n", null, null], "function_type": "lambda", "output_shape": [8, 8, 896], "output_shape_type": "raw", "arguments": {"scale": 0.1}}, "inbound_nodes": [[["Block17_2_Conv2d_1x1", 0, 0, {}]]]}, {"name": "add", "class_name": "Add", "config": {"name": "add", "trainable": true, "dtype": "float32"}, "inbound_nodes": [[["Block17_1_Activation", 0, 0, {}], ["lambda_57", 0, 0, {}]]]}, {"name": "Block17_2_Activation", "class_name": "Activation", "config": {"name": "Block17_2_Activation", "trainable": true, "dtype": "float32", "activation": "relu"}, "inbound_nodes": [[["add", 0, 0, {}]]]}, {"name": "Block17_3_Branch_1_Conv2d_0a_1x1", "class_name": "Conv2D", "config": {"name": "Block17_3_Branch_1_Conv2d_0a_1x1", "trainable": true, "dtype": "float32", "filters": 128, "kernel_size": [1, 1], "strides": [1, 1], "padding": "same", "data_format": "channels_last", "dilation_rate": [1, 1], "activation": "linear", "use_bias": false, "kernel_initializer": {"class_name": "VarianceScaling", "config": {"scale": 1.0, "mode": "fan_avg", "distribution": "uniform", "seed": null}}, "bias_initializer": {"class_name": "Zeros", "config": {}}, "kernel_regularizer": null, "bias_regularizer": null, "activity_regularizer": null, "kernel_constraint": null, "bias_constraint": null}, "inbound_nodes": [[["Block17_2_Activation", 0, 0, {}]]]}, {"name": "Block17_3_Branch_1_Conv2d_0a_1x1_BatchNorm", "class_name": "BatchNormalization", "config": {"name": "Block17_3_Branch_1_Conv2d_0a_1x1_BatchNorm", "trainable": true, "dtype": "float32", "axis": 3, "momentum": 0.995, "epsilon": 0.001, "center": true, "scale": false, "beta_initializer": {"class_name": "Zeros", "config": {}}, "gamma_initializer": {"class_name": "Ones", "config": {}}, "moving_mean_initializer": {"class_name": "Zeros", "config": {}}, "moving_variance_initializer": {"class_name": "Ones", "config": {}}, "beta_regularizer": null, "gamma_regularizer": null, "beta_constraint": null, "gamma_constraint": null}, "inbound_nodes": [[["Block17_3_Branch_1_Conv2d_0a_1x1", 0, 0, {}]]]}, {"name": "Block17_3_Branch_1_Conv2d_0a_1x1_Activation", "class_name": "Activation", "config": {"name": "Block17_3_Branch_1_Conv2d_0a_1x1_Activation", "trainable": true, "dtype": "float32", "activation": "relu"}, "inbound_nodes": [[["Block17_3_Branch_1_Conv2d_0a_1x1_BatchNorm", 0, 0, {}]]]}, {"name": "Block17_3_Branch_1_Conv2d_0b_1x7", "class_name": "Conv2D", "config": {"name": "Block17_3_Branch_1_Conv2d_0b_1x7", "trainable": true, "dtype": "float32", "filters": 128, "kernel_size": [1, 7], "strides": [1, 1], "padding": "same", "data_format": "channels_last", "dilation_rate": [1, 1], "activation": "linear", "use_bias": false, "kernel_initializer": {"class_name": "VarianceScaling", "config": {"scale": 1.0, "mode": "fan_avg", "distribution": "uniform", "seed": null}}, "bias_initializer": {"class_name": "Zeros", "config": {}}, "kernel_regularizer": null, "bias_regularizer": null, "activity_regularizer": null, "kernel_constraint": null, "bias_constraint": null}, "inbound_nodes": [[["Block17_3_Branch_1_Conv2d_0a_1x1_Activation", 0, 0, {}]]]}, {"name": "Block17_3_Branch_1_Conv2d_0b_1x7_BatchNorm", "class_name": "BatchNormalization", "config": {"name": "Block17_3_Branch_1_Conv2d_0b_1x7_BatchNorm", "trainable": true, "dtype": "float32", "axis": 3, "momentum": 0.995, "epsilon": 0.001, "center": true, "scale": false, "beta_initializer": {"class_name": "Zeros", "config": {}}, "gamma_initializer": {"class_name": "Ones", "config": {}}, "moving_mean_initializer": {"class_name": "Zeros", "config": {}}, "moving_variance_initializer": {"class_name": "Ones", "config": {}}, "beta_regularizer": null, "gamma_regularizer": null, "beta_constraint": null, "gamma_constraint": null}, "inbound_nodes": [[["Block17_3_Branch_1_Conv2d_0b_1x7", 0, 0, {}]]]}, {"name": "Block17_3_Branch_1_Conv2d_0b_1x7_Activation", "class_name": "Activation", "config": {"name": "Block17_3_Branch_1_Conv2d_0b_1x7_Activation", "trainable": true, "dtype": "float32", "activation": "relu"}, "inbound_nodes": [[["Block17_3_Branch_1_Conv2d_0b_1x7_BatchNorm", 0, 0, {}]]]}, {"name": "Block17_3_Branch_0_Conv2d_1x1", "class_name": "Conv2D", "config": {"name": "Block17_3_Branch_0_Conv2d_1x1", "trainable": true, "dtype": "float32", "filters": 128, "kernel_size": [1, 1], "strides": [1, 1], "padding": "same", "data_format": "channels_last", "dilation_rate": [1, 1], "activation": "linear", "use_bias": false, "kernel_initializer": {"class_name": "VarianceScaling", "config": {"scale": 1.0, "mode": "fan_avg", "distribution": "uniform", "seed": null}}, "bias_initializer": {"class_name": "Zeros", "config": {}}, "kernel_regularizer": null, "bias_regularizer": null, "activity_regularizer": null, "kernel_constraint": null, "bias_constraint": null}, "inbound_nodes": [[["Block17_2_Activation", 0, 0, {}]]]}, {"name": "Block17_3_Branch_1_Conv2d_0c_7x1", "class_name": "Conv2D", "config": {"name": "Block17_3_Branch_1_Conv2d_0c_7x1", "trainable": true, "dtype": "float32", "filters": 128, "kernel_size": [7, 1], "strides": [1, 1], "padding": "same", "data_format": "channels_last", "dilation_rate": [1, 1], "activation": "linear", "use_bias": false, "kernel_initializer": {"class_name": "VarianceScaling", "config": {"scale": 1.0, "mode": "fan_avg", "distribution": "uniform", "seed": null}}, "bias_initializer": {"class_name": "Zeros", "config": {}}, "kernel_regularizer": null, "bias_regularizer": null, "activity_regularizer": null, "kernel_constraint": null, "bias_constraint": null}, "inbound_nodes": [[["Block17_3_Branch_1_Conv2d_0b_1x7_Activation", 0, 0, {}]]]}, {"name": "Block17_3_Branch_0_Conv2d_1x1_BatchNorm", "class_name": "BatchNormalization", "config": {"name": "Block17_3_Branch_0_Conv2d_1x1_BatchNorm", "trainable": true, "dtype": "float32", "axis": 3, "momentum": 0.995, "epsilon": 0.001, "center": true, "scale": false, "beta_initializer": {"class_name": "Zeros", "config": {}}, "gamma_initializer": {"class_name": "Ones", "config": {}}, "moving_mean_initializer": {"class_name": "Zeros", "config": {}}, "moving_variance_initializer": {"class_name": "Ones", "config": {}}, "beta_regularizer": null, "gamma_regularizer": null, "beta_constraint": null, "gamma_constraint": null}, "inbound_nodes": [[["Block17_3_Branch_0_Conv2d_1x1", 0, 0, {}]]]}, {"name": "Block17_3_Branch_1_Conv2d_0c_7x1_BatchNorm", "class_name": "BatchNormalization", "config": {"name": "Block17_3_Branch_1_Conv2d_0c_7x1_BatchNorm", "trainable": true, "dtype": "float32", "axis": 3, "momentum": 0.995, "epsilon": 0.001, "center": true, "scale": false, "beta_initializer": {"class_name": "Zeros", "config": {}}, "gamma_initializer": {"class_name": "Ones", "config": {}}, "moving_mean_initializer": {"class_name": "Zeros", "config": {}}, "moving_variance_initializer": {"class_name": "Ones", "config": {}}, "beta_regularizer": null, "gamma_regularizer": null, "beta_constraint": null, "gamma_constraint": null}, "inbound_nodes": [[["Block17_3_Branch_1_Conv2d_0c_7x1", 0, 0, {}]]]}, {"name": "Block17_3_Branch_0_Conv2d_1x1_Activation", "class_name": "Activation", "config": {"name": "Block17_3_Branch_0_Conv2d_1x1_Activation", "trainable": true, "dtype": "float32", "activation": "relu"}, "inbound_nodes": [[["Block17_3_Branch_0_Conv2d_1x1_BatchNorm", 0, 0, {}]]]}, {"name": "Block17_3_Branch_1_Conv2d_0c_7x1_Activation", "class_name": "Activation", "config": {"name": "Block17_3_Branch_1_Conv2d_0c_7x1_Activation", "trainable": true, "dtype": "float32", "activation": "relu"}, "inbound_nodes": [[["Block17_3_Branch_1_Conv2d_0c_7x1_BatchNorm", 0, 0, {}]]]}, {"name": "Block17_3_Concatenate", "class_name": "Concatenate", "config": {"name": "Block17_3_Concatenate", "trainable": true, "dtype": "float32", "axis": 3}, "inbound_nodes": [[["Block17_3_Branch_0_Conv2d_1x1_Activation", 0, 0, {}], ["Block17_3_Branch_1_Conv2d_0c_7x1_Activation", 0, 0, {}]]]}, {"name": "Block17_3_Conv2d_1x1", "class_name": "Conv2D", "config": {"name": "Block17_3_Conv2d_1x1", "trainable": true, "dtype": "float32", "filters": 896, "kernel_size": [1, 1], "strides": [1, 1], "padding": "same", "data_format": "channels_last", "dilation_rate": [1, 1], "activation": "linear", "use_bias": true, "kernel_initializer": {"class_name": "VarianceScaling", "config": {"scale": 1.0, "mode": "fan_avg", "distribution": "uniform", "seed": null}}, "bias_initializer": {"class_name": "Zeros", "config": {}}, "kernel_regularizer": null, "bias_regularizer": null, "activity_regularizer": null, "kernel_constraint": null, "bias_constraint": null}, "inbound_nodes": [[["Block17_3_Concatenate", 0, 0, {}]]]}, {"name": "lambda_58", "class_name": "Lambda01", "config": {"name": "lambda_58", "trainable": true, "dtype": "float32", "function": ["4wIAAAAAAAAAAgAAAAIAAABDAAAAcwgAAAB8AHwBFABTACkBTqkAKQLaAXjaBXNjYWxlcgEAAABy\nAQAAAPpSQzpcVXNlcnNcMVxEZXNrdG9wXHRlbnNvcmZsb3dca2VyYXMtZmFjZW5ldC1tYXN0ZXJc\nbm90ZWJvb2tcaW5jZXB0aW9uX3Jlc25ldF92MS5wedoHc2NhbGluZxkAAABzAgAAAAAB\n", null, null], "function_type": "lambda", "output_shape": [8, 8, 896], "output_shape_type": "raw", "arguments": {"scale": 0.1}}, "inbound_nodes": [[["Block17_3_Conv2d_1x1", 0, 0, {}]]]}, {"name": "add_50", "class_name": "Add", "config": {"name": "add_50", "trainable": true, "dtype": "float32"}, "inbound_nodes": [[["Block17_2_Activation", 0, 0, {}], ["lambda_58", 0, 0, {}]]]}, {"name": "Block17_3_Activation", "class_name": "Activation", "config": {"name": "Block17_3_Activation", "trainable": true, "dtype": "float32", "activation": "relu"}, "inbound_nodes": [[["add_50", 0, 0, {}]]]}, {"name": "Block17_4_Branch_1_Conv2d_0a_1x1", "class_name": "Conv2D", "config": {"name": "Block17_4_Branch_1_Conv2d_0a_1x1", "trainable": true, "dtype": "float32", "filters": 128, "kernel_size": [1, 1], "strides": [1, 1], "padding": "same", "data_format": "channels_last", "dilation_rate": [1, 1], "activation": "linear", "use_bias": false, "kernel_initializer": {"class_name": "VarianceScaling", "config": {"scale": 1.0, "mode": "fan_avg", "distribution": "uniform", "seed": null}}, "bias_initializer": {"class_name": "Zeros", "config": {}}, "kernel_regularizer": null, "bias_regularizer": null, "activity_regularizer": null, "kernel_constraint": null, "bias_constraint": null}, "inbound_nodes": [[["Block17_3_Activation", 0, 0, {}]]]}, {"name": "Block17_4_Branch_1_Conv2d_0a_1x1_BatchNorm", "class_name": "BatchNormalization", "config": {"name": "Block17_4_Branch_1_Conv2d_0a_1x1_BatchNorm", "trainable": true, "dtype": "float32", "axis": 3, "momentum": 0.995, "epsilon": 0.001, "center": true, "scale": false, "beta_initializer": {"class_name": "Zeros", "config": {}}, "gamma_initializer": {"class_name": "Ones", "config": {}}, "moving_mean_initializer": {"class_name": "Zeros", "config": {}}, "moving_variance_initializer": {"class_name": "Ones", "config": {}}, "beta_regularizer": null, "gamma_regularizer": null, "beta_constraint": null, "gamma_constraint": null}, "inbound_nodes": [[["Block17_4_Branch_1_Conv2d_0a_1x1", 0, 0, {}]]]}, {"name": "Block17_4_Branch_1_Conv2d_0a_1x1_Activation", "class_name": "Activation", "config": {"name": "Block17_4_Branch_1_Conv2d_0a_1x1_Activation", "trainable": true, "dtype": "float32", "activation": "relu"}, "inbound_nodes": [[["Block17_4_Branch_1_Conv2d_0a_1x1_BatchNorm", 0, 0, {}]]]}, {"name": "Block17_4_Branch_1_Conv2d_0b_1x7", "class_name": "Conv2D", "config": {"name": "Block17_4_Branch_1_Conv2d_0b_1x7", "trainable": true, "dtype": "float32", "filters": 128, "kernel_size": [1, 7], "strides": [1, 1], "padding": "same", "data_format": "channels_last", "dilation_rate": [1, 1], "activation": "linear", "use_bias": false, "kernel_initializer": {"class_name": "VarianceScaling", "config": {"scale": 1.0, "mode": "fan_avg", "distribution": "uniform", "seed": null}}, "bias_initializer": {"class_name": "Zeros", "config": {}}, "kernel_regularizer": null, "bias_regularizer": null, "activity_regularizer": null, "kernel_constraint": null, "bias_constraint": null}, "inbound_nodes": [[["Block17_4_Branch_1_Conv2d_0a_1x1_Activation", 0, 0, {}]]]}, {"name": "Block17_4_Branch_1_Conv2d_0b_1x7_BatchNorm", "class_name": "BatchNormalization", "config": {"name": "Block17_4_Branch_1_Conv2d_0b_1x7_BatchNorm", "trainable": true, "dtype": "float32", "axis": 3, "momentum": 0.995, "epsilon": 0.001, "center": true, "scale": false, "beta_initializer": {"class_name": "Zeros", "config": {}}, "gamma_initializer": {"class_name": "Ones", "config": {}}, "moving_mean_initializer": {"class_name": "Zeros", "config": {}}, "moving_variance_initializer": {"class_name": "Ones", "config": {}}, "beta_regularizer": null, "gamma_regularizer": null, "beta_constraint": null, "gamma_constraint": null}, "inbound_nodes": [[["Block17_4_Branch_1_Conv2d_0b_1x7", 0, 0, {}]]]}, {"name": "Block17_4_Branch_1_Conv2d_0b_1x7_Activation", "class_name": "Activation", "config": {"name": "Block17_4_Branch_1_Conv2d_0b_1x7_Activation", "trainable": true, "dtype": "float32", "activation": "relu"}, "inbound_nodes": [[["Block17_4_Branch_1_Conv2d_0b_1x7_BatchNorm", 0, 0, {}]]]}, {"name": "Block17_4_Branch_0_Conv2d_1x1", "class_name": "Conv2D", "config": {"name": "Block17_4_Branch_0_Conv2d_1x1", "trainable": true, "dtype": "float32", "filters": 128, "kernel_size": [1, 1], "strides": [1, 1], "padding": "same", "data_format": "channels_last", "dilation_rate": [1, 1], "activation": "linear", "use_bias": false, "kernel_initializer": {"class_name": "VarianceScaling", "config": {"scale": 1.0, "mode": "fan_avg", "distribution": "uniform", "seed": null}}, "bias_initializer": {"class_name": "Zeros", "config": {}}, "kernel_regularizer": null, "bias_regularizer": null, "activity_regularizer": null, "kernel_constraint": null, "bias_constraint": null}, "inbound_nodes": [[["Block17_3_Activation", 0, 0, {}]]]}, {"name": "Block17_4_Branch_1_Conv2d_0c_7x1", "class_name": "Conv2D", "config": {"name": "Block17_4_Branch_1_Conv2d_0c_7x1", "trainable": true, "dtype": "float32", "filters": 128, "kernel_size": [7, 1], "strides": [1, 1], "padding": "same", "data_format": "channels_last", "dilation_rate": [1, 1], "activation": "linear", "use_bias": false, "kernel_initializer": {"class_name": "VarianceScaling", "config": {"scale": 1.0, "mode": "fan_avg", "distribution": "uniform", "seed": null}}, "bias_initializer": {"class_name": "Zeros", "config": {}}, "kernel_regularizer": null, "bias_regularizer": null, "activity_regularizer": null, "kernel_constraint": null, "bias_constraint": null}, "inbound_nodes": [[["Block17_4_Branch_1_Conv2d_0b_1x7_Activation", 0, 0, {}]]]}, {"name": "Block17_4_Branch_0_Conv2d_1x1_BatchNorm", "class_name": "BatchNormalization", "config": {"name": "Block17_4_Branch_0_Conv2d_1x1_BatchNorm", "trainable": true, "dtype": "float32", "axis": 3, "momentum": 0.995, "epsilon": 0.001, "center": true, "scale": false, "beta_initializer": {"class_name": "Zeros", "config": {}}, "gamma_initializer": {"class_name": "Ones", "config": {}}, "moving_mean_initializer": {"class_name": "Zeros", "config": {}}, "moving_variance_initializer": {"class_name": "Ones", "config": {}}, "beta_regularizer": null, "gamma_regularizer": null, "beta_constraint": null, "gamma_constraint": null}, "inbound_nodes": [[["Block17_4_Branch_0_Conv2d_1x1", 0, 0, {}]]]}, {"name": "Block17_4_Branch_1_Conv2d_0c_7x1_BatchNorm", "class_name": "BatchNormalization", "config": {"name": "Block17_4_Branch_1_Conv2d_0c_7x1_BatchNorm", "trainable": true, "dtype": "float32", "axis": 3, "momentum": 0.995, "epsilon": 0.001, "center": true, "scale": false, "beta_initializer": {"class_name": "Zeros", "config": {}}, "gamma_initializer": {"class_name": "Ones", "config": {}}, "moving_mean_initializer": {"class_name": "Zeros", "config": {}}, "moving_variance_initializer": {"class_name": "Ones", "config": {}}, "beta_regularizer": null, "gamma_regularizer": null, "beta_constraint": null, "gamma_constraint": null}, "inbound_nodes": [[["Block17_4_Branch_1_Conv2d_0c_7x1", 0, 0, {}]]]}, {"name": "Block17_4_Branch_0_Conv2d_1x1_Activation", "class_name": "Activation", "config": {"name": "Block17_4_Branch_0_Conv2d_1x1_Activation", "trainable": true, "dtype": "float32", "activation": "relu"}, "inbound_nodes": [[["Block17_4_Branch_0_Conv2d_1x1_BatchNorm", 0, 0, {}]]]}, {"name": "Block17_4_Branch_1_Conv2d_0c_7x1_Activation", "class_name": "Activation", "config": {"name": "Block17_4_Branch_1_Conv2d_0c_7x1_Activation", "trainable": true, "dtype": "float32", "activation": "relu"}, "inbound_nodes": [[["Block17_4_Branch_1_Conv2d_0c_7x1_BatchNorm", 0, 0, {}]]]}, {"name": "Block17_4_Concatenate", "class_name": "Concatenate", "config": {"name": "Block17_4_Concatenate", "trainable": true, "dtype": "float32", "axis": 3}, "inbound_nodes": [[["Block17_4_Branch_0_Conv2d_1x1_Activation", 0, 0, {}], ["Block17_4_Branch_1_Conv2d_0c_7x1_Activation", 0, 0, {}]]]}, {"name": "Block17_4_Conv2d_1x1", "class_name": "Conv2D", "config": {"name": "Block17_4_Conv2d_1x1", "trainable": true, "dtype": "float32", "filters": 896, "kernel_size": [1, 1], "strides": [1, 1], "padding": "same", "data_format": "channels_last", "dilation_rate": [1, 1], "activation": "linear", "use_bias": true, "kernel_initializer": {"class_name": "VarianceScaling", "config": {"scale": 1.0, "mode": "fan_avg", "distribution": "uniform", "seed": null}}, "bias_initializer": {"class_name": "Zeros", "config": {}}, "kernel_regularizer": null, "bias_regularizer": null, "activity_regularizer": null, "kernel_constraint": null, "bias_constraint": null}, "inbound_nodes": [[["Block17_4_Concatenate", 0, 0, {}]]]}, {"name": "lambda_59", "class_name": "Lambda01", "config": {"name": "lambda_59", "trainable": true, "dtype": "float32", "function": ["4wIAAAAAAAAAAgAAAAIAAABDAAAAcwgAAAB8AHwBFABTACkBTqkAKQLaAXjaBXNjYWxlcgEAAABy\nAQAAAPpSQzpcVXNlcnNcMVxEZXNrdG9wXHRlbnNvcmZsb3dca2VyYXMtZmFjZW5ldC1tYXN0ZXJc\nbm90ZWJvb2tcaW5jZXB0aW9uX3Jlc25ldF92MS5wedoHc2NhbGluZxkAAABzAgAAAAAB\n", null, null], "function_type": "lambda", "output_shape": [8, 8, 896], "output_shape_type": "raw", "arguments": {"scale": 0.1}}, "inbound_nodes": [[["Block17_4_Conv2d_1x1", 0, 0, {}]]]}, {"name": "add_51", "class_name": "Add", "config": {"name": "add_51", "trainable": true, "dtype": "float32"}, "inbound_nodes": [[["Block17_3_Activation", 0, 0, {}], ["lambda_59", 0, 0, {}]]]}, {"name": "Block17_4_Activation", "class_name": "Activation", "config": {"name": "Block17_4_Activation", "trainable": true, "dtype": "float32", "activation": "relu"}, "inbound_nodes": [[["add_51", 0, 0, {}]]]}, {"name": "Block17_5_Branch_1_Conv2d_0a_1x1", "class_name": "Conv2D", "config": {"name": "Block17_5_Branch_1_Conv2d_0a_1x1", "trainable": true, "dtype": "float32", "filters": 128, "kernel_size": [1, 1], "strides": [1, 1], "padding": "same", "data_format": "channels_last", "dilation_rate": [1, 1], "activation": "linear", "use_bias": false, "kernel_initializer": {"class_name": "VarianceScaling", "config": {"scale": 1.0, "mode": "fan_avg", "distribution": "uniform", "seed": null}}, "bias_initializer": {"class_name": "Zeros", "config": {}}, "kernel_regularizer": null, "bias_regularizer": null, "activity_regularizer": null, "kernel_constraint": null, "bias_constraint": null}, "inbound_nodes": [[["Block17_4_Activation", 0, 0, {}]]]}, {"name": "Block17_5_Branch_1_Conv2d_0a_1x1_BatchNorm", "class_name": "BatchNormalization", "config": {"name": "Block17_5_Branch_1_Conv2d_0a_1x1_BatchNorm", "trainable": true, "dtype": "float32", "axis": 3, "momentum": 0.995, "epsilon": 0.001, "center": true, "scale": false, "beta_initializer": {"class_name": "Zeros", "config": {}}, "gamma_initializer": {"class_name": "Ones", "config": {}}, "moving_mean_initializer": {"class_name": "Zeros", "config": {}}, "moving_variance_initializer": {"class_name": "Ones", "config": {}}, "beta_regularizer": null, "gamma_regularizer": null, "beta_constraint": null, "gamma_constraint": null}, "inbound_nodes": [[["Block17_5_Branch_1_Conv2d_0a_1x1", 0, 0, {}]]]}, {"name": "Block17_5_Branch_1_Conv2d_0a_1x1_Activation", "class_name": "Activation", "config": {"name": "Block17_5_Branch_1_Conv2d_0a_1x1_Activation", "trainable": true, "dtype": "float32", "activation": "relu"}, "inbound_nodes": [[["Block17_5_Branch_1_Conv2d_0a_1x1_BatchNorm", 0, 0, {}]]]}, {"name": "Block17_5_Branch_1_Conv2d_0b_1x7", "class_name": "Conv2D", "config": {"name": "Block17_5_Branch_1_Conv2d_0b_1x7", "trainable": true, "dtype": "float32", "filters": 128, "kernel_size": [1, 7], "strides": [1, 1], "padding": "same", "data_format": "channels_last", "dilation_rate": [1, 1], "activation": "linear", "use_bias": false, "kernel_initializer": {"class_name": "VarianceScaling", "config": {"scale": 1.0, "mode": "fan_avg", "distribution": "uniform", "seed": null}}, "bias_initializer": {"class_name": "Zeros", "config": {}}, "kernel_regularizer": null, "bias_regularizer": null, "activity_regularizer": null, "kernel_constraint": null, "bias_constraint": null}, "inbound_nodes": [[["Block17_5_Branch_1_Conv2d_0a_1x1_Activation", 0, 0, {}]]]}, {"name": "Block17_5_Branch_1_Conv2d_0b_1x7_BatchNorm", "class_name": "BatchNormalization", "config": {"name": "Block17_5_Branch_1_Conv2d_0b_1x7_BatchNorm", "trainable": true, "dtype": "float32", "axis": 3, "momentum": 0.995, "epsilon": 0.001, "center": true, "scale": false, "beta_initializer": {"class_name": "Zeros", "config": {}}, "gamma_initializer": {"class_name": "Ones", "config": {}}, "moving_mean_initializer": {"class_name": "Zeros", "config": {}}, "moving_variance_initializer": {"class_name": "Ones", "config": {}}, "beta_regularizer": null, "gamma_regularizer": null, "beta_constraint": null, "gamma_constraint": null}, "inbound_nodes": [[["Block17_5_Branch_1_Conv2d_0b_1x7", 0, 0, {}]]]}, {"name": "Block17_5_Branch_1_Conv2d_0b_1x7_Activation", "class_name": "Activation", "config": {"name": "Block17_5_Branch_1_Conv2d_0b_1x7_Activation", "trainable": true, "dtype": "float32", "activation": "relu"}, "inbound_nodes": [[["Block17_5_Branch_1_Conv2d_0b_1x7_BatchNorm", 0, 0, {}]]]}, {"name": "Block17_5_Branch_0_Conv2d_1x1", "class_name": "Conv2D", "config": {"name": "Block17_5_Branch_0_Conv2d_1x1", "trainable": true, "dtype": "float32", "filters": 128, "kernel_size": [1, 1], "strides": [1, 1], "padding": "same", "data_format": "channels_last", "dilation_rate": [1, 1], "activation": "linear", "use_bias": false, "kernel_initializer": {"class_name": "VarianceScaling", "config": {"scale": 1.0, "mode": "fan_avg", "distribution": "uniform", "seed": null}}, "bias_initializer": {"class_name": "Zeros", "config": {}}, "kernel_regularizer": null, "bias_regularizer": null, "activity_regularizer": null, "kernel_constraint": null, "bias_constraint": null}, "inbound_nodes": [[["Block17_4_Activation", 0, 0, {}]]]}, {"name": "Block17_5_Branch_1_Conv2d_0c_7x1", "class_name": "Conv2D", "config": {"name": "Block17_5_Branch_1_Conv2d_0c_7x1", "trainable": true, "dtype": "float32", "filters": 128, "kernel_size": [7, 1], "strides": [1, 1], "padding": "same", "data_format": "channels_last", "dilation_rate": [1, 1], "activation": "linear", "use_bias": false, "kernel_initializer": {"class_name": "VarianceScaling", "config": {"scale": 1.0, "mode": "fan_avg", "distribution": "uniform", "seed": null}}, "bias_initializer": {"class_name": "Zeros", "config": {}}, "kernel_regularizer": null, "bias_regularizer": null, "activity_regularizer": null, "kernel_constraint": null, "bias_constraint": null}, "inbound_nodes": [[["Block17_5_Branch_1_Conv2d_0b_1x7_Activation", 0, 0, {}]]]}, {"name": "Block17_5_Branch_0_Conv2d_1x1_BatchNorm", "class_name": "BatchNormalization", "config": {"name": "Block17_5_Branch_0_Conv2d_1x1_BatchNorm", "trainable": true, "dtype": "float32", "axis": 3, "momentum": 0.995, "epsilon": 0.001, "center": true, "scale": false, "beta_initializer": {"class_name": "Zeros", "config": {}}, "gamma_initializer": {"class_name": "Ones", "config": {}}, "moving_mean_initializer": {"class_name": "Zeros", "config": {}}, "moving_variance_initializer": {"class_name": "Ones", "config": {}}, "beta_regularizer": null, "gamma_regularizer": null, "beta_constraint": null, "gamma_constraint": null}, "inbound_nodes": [[["Block17_5_Branch_0_Conv2d_1x1", 0, 0, {}]]]}, {"name": "Block17_5_Branch_1_Conv2d_0c_7x1_BatchNorm", "class_name": "BatchNormalization", "config": {"name": "Block17_5_Branch_1_Conv2d_0c_7x1_BatchNorm", "trainable": true, "dtype": "float32", "axis": 3, "momentum": 0.995, "epsilon": 0.001, "center": true, "scale": false, "beta_initializer": {"class_name": "Zeros", "config": {}}, "gamma_initializer": {"class_name": "Ones", "config": {}}, "moving_mean_initializer": {"class_name": "Zeros", "config": {}}, "moving_variance_initializer": {"class_name": "Ones", "config": {}}, "beta_regularizer": null, "gamma_regularizer": null, "beta_constraint": null, "gamma_constraint": null}, "inbound_nodes": [[["Block17_5_Branch_1_Conv2d_0c_7x1", 0, 0, {}]]]}, {"name": "Block17_5_Branch_0_Conv2d_1x1_Activation", "class_name": "Activation", "config": {"name": "Block17_5_Branch_0_Conv2d_1x1_Activation", "trainable": true, "dtype": "float32", "activation": "relu"}, "inbound_nodes": [[["Block17_5_Branch_0_Conv2d_1x1_BatchNorm", 0, 0, {}]]]}, {"name": "Block17_5_Branch_1_Conv2d_0c_7x1_Activation", "class_name": "Activation", "config": {"name": "Block17_5_Branch_1_Conv2d_0c_7x1_Activation", "trainable": true, "dtype": "float32", "activation": "relu"}, "inbound_nodes": [[["Block17_5_Branch_1_Conv2d_0c_7x1_BatchNorm", 0, 0, {}]]]}, {"name": "Block17_5_Concatenate", "class_name": "Concatenate", "config": {"name": "Block17_5_Concatenate", "trainable": true, "dtype": "float32", "axis": 3}, "inbound_nodes": [[["Block17_5_Branch_0_Conv2d_1x1_Activation", 0, 0, {}], ["Block17_5_Branch_1_Conv2d_0c_7x1_Activation", 0, 0, {}]]]}, {"name": "Block17_5_Conv2d_1x1", "class_name": "Conv2D", "config": {"name": "Block17_5_Conv2d_1x1", "trainable": true, "dtype": "float32", "filters": 896, "kernel_size": [1, 1], "strides": [1, 1], "padding": "same", "data_format": "channels_last", "dilation_rate": [1, 1], "activation": "linear", "use_bias": true, "kernel_initializer": {"class_name": "VarianceScaling", "config": {"scale": 1.0, "mode": "fan_avg", "distribution": "uniform", "seed": null}}, "bias_initializer": {"class_name": "Zeros", "config": {}}, "kernel_regularizer": null, "bias_regularizer": null, "activity_regularizer": null, "kernel_constraint": null, "bias_constraint": null}, "inbound_nodes": [[["Block17_5_Concatenate", 0, 0, {}]]]}, {"name": "lambda_60", "class_name": "Lambda01", "config": {"name": "lambda_60", "trainable": true, "dtype": "float32", "function": ["4wIAAAAAAAAAAgAAAAIAAABDAAAAcwgAAAB8AHwBFABTACkBTqkAKQLaAXjaBXNjYWxlcgEAAABy\nAQAAAPpSQzpcVXNlcnNcMVxEZXNrdG9wXHRlbnNvcmZsb3dca2VyYXMtZmFjZW5ldC1tYXN0ZXJc\nbm90ZWJvb2tcaW5jZXB0aW9uX3Jlc25ldF92MS5wedoHc2NhbGluZxkAAABzAgAAAAAB\n", null, null], "function_type": "lambda", "output_shape": [8, 8, 896], "output_shape_type": "raw", "arguments": {"scale": 0.1}}, "inbound_nodes": [[["Block17_5_Conv2d_1x1", 0, 0, {}]]]}, {"name": "add_52", "class_name": "Add", "config": {"name": "add_52", "trainable": true, "dtype": "float32"}, "inbound_nodes": [[["Block17_4_Activation", 0, 0, {}], ["lambda_60", 0, 0, {}]]]}, {"name": "Block17_5_Activation", "class_name": "Activation", "config": {"name": "Block17_5_Activation", "trainable": true, "dtype": "float32", "activation": "relu"}, "inbound_nodes": [[["add_52", 0, 0, {}]]]}, {"name": "Block17_6_Branch_1_Conv2d_0a_1x1", "class_name": "Conv2D", "config": {"name": "Block17_6_Branch_1_Conv2d_0a_1x1", "trainable": true, "dtype": "float32", "filters": 128, "kernel_size": [1, 1], "strides": [1, 1], "padding": "same", "data_format": "channels_last", "dilation_rate": [1, 1], "activation": "linear", "use_bias": false, "kernel_initializer": {"class_name": "VarianceScaling", "config": {"scale": 1.0, "mode": "fan_avg", "distribution": "uniform", "seed": null}}, "bias_initializer": {"class_name": "Zeros", "config": {}}, "kernel_regularizer": null, "bias_regularizer": null, "activity_regularizer": null, "kernel_constraint": null, "bias_constraint": null}, "inbound_nodes": [[["Block17_5_Activation", 0, 0, {}]]]}, {"name": "Block17_6_Branch_1_Conv2d_0a_1x1_BatchNorm", "class_name": "BatchNormalization", "config": {"name": "Block17_6_Branch_1_Conv2d_0a_1x1_BatchNorm", "trainable": true, "dtype": "float32", "axis": 3, "momentum": 0.995, "epsilon": 0.001, "center": true, "scale": false, "beta_initializer": {"class_name": "Zeros", "config": {}}, "gamma_initializer": {"class_name": "Ones", "config": {}}, "moving_mean_initializer": {"class_name": "Zeros", "config": {}}, "moving_variance_initializer": {"class_name": "Ones", "config": {}}, "beta_regularizer": null, "gamma_regularizer": null, "beta_constraint": null, "gamma_constraint": null}, "inbound_nodes": [[["Block17_6_Branch_1_Conv2d_0a_1x1", 0, 0, {}]]]}, {"name": "Block17_6_Branch_1_Conv2d_0a_1x1_Activation", "class_name": "Activation", "config": {"name": "Block17_6_Branch_1_Conv2d_0a_1x1_Activation", "trainable": true, "dtype": "float32", "activation": "relu"}, "inbound_nodes": [[["Block17_6_Branch_1_Conv2d_0a_1x1_BatchNorm", 0, 0, {}]]]}, {"name": "Block17_6_Branch_1_Conv2d_0b_1x7", "class_name": "Conv2D", "config": {"name": "Block17_6_Branch_1_Conv2d_0b_1x7", "trainable": true, "dtype": "float32", "filters": 128, "kernel_size": [1, 7], "strides": [1, 1], "padding": "same", "data_format": "channels_last", "dilation_rate": [1, 1], "activation": "linear", "use_bias": false, "kernel_initializer": {"class_name": "VarianceScaling", "config": {"scale": 1.0, "mode": "fan_avg", "distribution": "uniform", "seed": null}}, "bias_initializer": {"class_name": "Zeros", "config": {}}, "kernel_regularizer": null, "bias_regularizer": null, "activity_regularizer": null, "kernel_constraint": null, "bias_constraint": null}, "inbound_nodes": [[["Block17_6_Branch_1_Conv2d_0a_1x1_Activation", 0, 0, {}]]]}, {"name": "Block17_6_Branch_1_Conv2d_0b_1x7_BatchNorm", "class_name": "BatchNormalization", "config": {"name": "Block17_6_Branch_1_Conv2d_0b_1x7_BatchNorm", "trainable": true, "dtype": "float32", "axis": 3, "momentum": 0.995, "epsilon": 0.001, "center": true, "scale": false, "beta_initializer": {"class_name": "Zeros", "config": {}}, "gamma_initializer": {"class_name": "Ones", "config": {}}, "moving_mean_initializer": {"class_name": "Zeros", "config": {}}, "moving_variance_initializer": {"class_name": "Ones", "config": {}}, "beta_regularizer": null, "gamma_regularizer": null, "beta_constraint": null, "gamma_constraint": null}, "inbound_nodes": [[["Block17_6_Branch_1_Conv2d_0b_1x7", 0, 0, {}]]]}, {"name": "Block17_6_Branch_1_Conv2d_0b_1x7_Activation", "class_name": "Activation", "config": {"name": "Block17_6_Branch_1_Conv2d_0b_1x7_Activation", "trainable": true, "dtype": "float32", "activation": "relu"}, "inbound_nodes": [[["Block17_6_Branch_1_Conv2d_0b_1x7_BatchNorm", 0, 0, {}]]]}, {"name": "Block17_6_Branch_0_Conv2d_1x1", "class_name": "Conv2D", "config": {"name": "Block17_6_Branch_0_Conv2d_1x1", "trainable": true, "dtype": "float32", "filters": 128, "kernel_size": [1, 1], "strides": [1, 1], "padding": "same", "data_format": "channels_last", "dilation_rate": [1, 1], "activation": "linear", "use_bias": false, "kernel_initializer": {"class_name": "VarianceScaling", "config": {"scale": 1.0, "mode": "fan_avg", "distribution": "uniform", "seed": null}}, "bias_initializer": {"class_name": "Zeros", "config": {}}, "kernel_regularizer": null, "bias_regularizer": null, "activity_regularizer": null, "kernel_constraint": null, "bias_constraint": null}, "inbound_nodes": [[["Block17_5_Activation", 0, 0, {}]]]}, {"name": "Block17_6_Branch_1_Conv2d_0c_7x1", "class_name": "Conv2D", "config": {"name": "Block17_6_Branch_1_Conv2d_0c_7x1", "trainable": true, "dtype": "float32", "filters": 128, "kernel_size": [7, 1], "strides": [1, 1], "padding": "same", "data_format": "channels_last", "dilation_rate": [1, 1], "activation": "linear", "use_bias": false, "kernel_initializer": {"class_name": "VarianceScaling", "config": {"scale": 1.0, "mode": "fan_avg", "distribution": "uniform", "seed": null}}, "bias_initializer": {"class_name": "Zeros", "config": {}}, "kernel_regularizer": null, "bias_regularizer": null, "activity_regularizer": null, "kernel_constraint": null, "bias_constraint": null}, "inbound_nodes": [[["Block17_6_Branch_1_Conv2d_0b_1x7_Activation", 0, 0, {}]]]}, {"name": "Block17_6_Branch_0_Conv2d_1x1_BatchNorm", "class_name": "BatchNormalization", "config": {"name": "Block17_6_Branch_0_Conv2d_1x1_BatchNorm", "trainable": true, "dtype": "float32", "axis": 3, "momentum": 0.995, "epsilon": 0.001, "center": true, "scale": false, "beta_initializer": {"class_name": "Zeros", "config": {}}, "gamma_initializer": {"class_name": "Ones", "config": {}}, "moving_mean_initializer": {"class_name": "Zeros", "config": {}}, "moving_variance_initializer": {"class_name": "Ones", "config": {}}, "beta_regularizer": null, "gamma_regularizer": null, "beta_constraint": null, "gamma_constraint": null}, "inbound_nodes": [[["Block17_6_Branch_0_Conv2d_1x1", 0, 0, {}]]]}, {"name": "Block17_6_Branch_1_Conv2d_0c_7x1_BatchNorm", "class_name": "BatchNormalization", "config": {"name": "Block17_6_Branch_1_Conv2d_0c_7x1_BatchNorm", "trainable": true, "dtype": "float32", "axis": 3, "momentum": 0.995, "epsilon": 0.001, "center": true, "scale": false, "beta_initializer": {"class_name": "Zeros", "config": {}}, "gamma_initializer": {"class_name": "Ones", "config": {}}, "moving_mean_initializer": {"class_name": "Zeros", "config": {}}, "moving_variance_initializer": {"class_name": "Ones", "config": {}}, "beta_regularizer": null, "gamma_regularizer": null, "beta_constraint": null, "gamma_constraint": null}, "inbound_nodes": [[["Block17_6_Branch_1_Conv2d_0c_7x1", 0, 0, {}]]]}, {"name": "Block17_6_Branch_0_Conv2d_1x1_Activation", "class_name": "Activation", "config": {"name": "Block17_6_Branch_0_Conv2d_1x1_Activation", "trainable": true, "dtype": "float32", "activation": "relu"}, "inbound_nodes": [[["Block17_6_Branch_0_Conv2d_1x1_BatchNorm", 0, 0, {}]]]}, {"name": "Block17_6_Branch_1_Conv2d_0c_7x1_Activation", "class_name": "Activation", "config": {"name": "Block17_6_Branch_1_Conv2d_0c_7x1_Activation", "trainable": true, "dtype": "float32", "activation": "relu"}, "inbound_nodes": [[["Block17_6_Branch_1_Conv2d_0c_7x1_BatchNorm", 0, 0, {}]]]}, {"name": "Block17_6_Concatenate", "class_name": "Concatenate", "config": {"name": "Block17_6_Concatenate", "trainable": true, "dtype": "float32", "axis": 3}, "inbound_nodes": [[["Block17_6_Branch_0_Conv2d_1x1_Activation", 0, 0, {}], ["Block17_6_Branch_1_Conv2d_0c_7x1_Activation", 0, 0, {}]]]}, {"name": "Block17_6_Conv2d_1x1", "class_name": "Conv2D", "config": {"name": "Block17_6_Conv2d_1x1", "trainable": true, "dtype": "float32", "filters": 896, "kernel_size": [1, 1], "strides": [1, 1], "padding": "same", "data_format": "channels_last", "dilation_rate": [1, 1], "activation": "linear", "use_bias": true, "kernel_initializer": {"class_name": "VarianceScaling", "config": {"scale": 1.0, "mode": "fan_avg", "distribution": "uniform", "seed": null}}, "bias_initializer": {"class_name": "Zeros", "config": {}}, "kernel_regularizer": null, "bias_regularizer": null, "activity_regularizer": null, "kernel_constraint": null, "bias_constraint": null}, "inbound_nodes": [[["Block17_6_Concatenate", 0, 0, {}]]]}, {"name": "lambda_61", "class_name": "Lambda01", "config": {"name": "lambda_61", "trainable": true, "dtype": "float32", "function": ["4wIAAAAAAAAAAgAAAAIAAABDAAAAcwgAAAB8AHwBFABTACkBTqkAKQLaAXjaBXNjYWxlcgEAAABy\nAQAAAPpSQzpcVXNlcnNcMVxEZXNrdG9wXHRlbnNvcmZsb3dca2VyYXMtZmFjZW5ldC1tYXN0ZXJc\nbm90ZWJvb2tcaW5jZXB0aW9uX3Jlc25ldF92MS5wedoHc2NhbGluZxkAAABzAgAAAAAB\n", null, null], "function_type": "lambda", "output_shape": [8, 8, 896], "output_shape_type": "raw", "arguments": {"scale": 0.1}}, "inbound_nodes": [[["Block17_6_Conv2d_1x1", 0, 0, {}]]]}, {"name": "add_53", "class_name": "Add", "config": {"name": "add_53", "trainable": true, "dtype": "float32"}, "inbound_nodes": [[["Block17_5_Activation", 0, 0, {}], ["lambda_61", 0, 0, {}]]]}, {"name": "Block17_6_Activation", "class_name": "Activation", "config": {"name": "Block17_6_Activation", "trainable": true, "dtype": "float32", "activation": "relu"}, "inbound_nodes": [[["add_53", 0, 0, {}]]]}, {"name": "Block17_7_Branch_1_Conv2d_0a_1x1", "class_name": "Conv2D", "config": {"name": "Block17_7_Branch_1_Conv2d_0a_1x1", "trainable": true, "dtype": "float32", "filters": 128, "kernel_size": [1, 1], "strides": [1, 1], "padding": "same", "data_format": "channels_last", "dilation_rate": [1, 1], "activation": "linear", "use_bias": false, "kernel_initializer": {"class_name": "VarianceScaling", "config": {"scale": 1.0, "mode": "fan_avg", "distribution": "uniform", "seed": null}}, "bias_initializer": {"class_name": "Zeros", "config": {}}, "kernel_regularizer": null, "bias_regularizer": null, "activity_regularizer": null, "kernel_constraint": null, "bias_constraint": null}, "inbound_nodes": [[["Block17_6_Activation", 0, 0, {}]]]}, {"name": "Block17_7_Branch_1_Conv2d_0a_1x1_BatchNorm", "class_name": "BatchNormalization", "config": {"name": "Block17_7_Branch_1_Conv2d_0a_1x1_BatchNorm", "trainable": true, "dtype": "float32", "axis": 3, "momentum": 0.995, "epsilon": 0.001, "center": true, "scale": false, "beta_initializer": {"class_name": "Zeros", "config": {}}, "gamma_initializer": {"class_name": "Ones", "config": {}}, "moving_mean_initializer": {"class_name": "Zeros", "config": {}}, "moving_variance_initializer": {"class_name": "Ones", "config": {}}, "beta_regularizer": null, "gamma_regularizer": null, "beta_constraint": null, "gamma_constraint": null}, "inbound_nodes": [[["Block17_7_Branch_1_Conv2d_0a_1x1", 0, 0, {}]]]}, {"name": "Block17_7_Branch_1_Conv2d_0a_1x1_Activation", "class_name": "Activation", "config": {"name": "Block17_7_Branch_1_Conv2d_0a_1x1_Activation", "trainable": true, "dtype": "float32", "activation": "relu"}, "inbound_nodes": [[["Block17_7_Branch_1_Conv2d_0a_1x1_BatchNorm", 0, 0, {}]]]}, {"name": "Block17_7_Branch_1_Conv2d_0b_1x7", "class_name": "Conv2D", "config": {"name": "Block17_7_Branch_1_Conv2d_0b_1x7", "trainable": true, "dtype": "float32", "filters": 128, "kernel_size": [1, 7], "strides": [1, 1], "padding": "same", "data_format": "channels_last", "dilation_rate": [1, 1], "activation": "linear", "use_bias": false, "kernel_initializer": {"class_name": "VarianceScaling", "config": {"scale": 1.0, "mode": "fan_avg", "distribution": "uniform", "seed": null}}, "bias_initializer": {"class_name": "Zeros", "config": {}}, "kernel_regularizer": null, "bias_regularizer": null, "activity_regularizer": null, "kernel_constraint": null, "bias_constraint": null}, "inbound_nodes": [[["Block17_7_Branch_1_Conv2d_0a_1x1_Activation", 0, 0, {}]]]}, {"name": "Block17_7_Branch_1_Conv2d_0b_1x7_BatchNorm", "class_name": "BatchNormalization", "config": {"name": "Block17_7_Branch_1_Conv2d_0b_1x7_BatchNorm", "trainable": true, "dtype": "float32", "axis": 3, "momentum": 0.995, "epsilon": 0.001, "center": true, "scale": false, "beta_initializer": {"class_name": "Zeros", "config": {}}, "gamma_initializer": {"class_name": "Ones", "config": {}}, "moving_mean_initializer": {"class_name": "Zeros", "config": {}}, "moving_variance_initializer": {"class_name": "Ones", "config": {}}, "beta_regularizer": null, "gamma_regularizer": null, "beta_constraint": null, "gamma_constraint": null}, "inbound_nodes": [[["Block17_7_Branch_1_Conv2d_0b_1x7", 0, 0, {}]]]}, {"name": "Block17_7_Branch_1_Conv2d_0b_1x7_Activation", "class_name": "Activation", "config": {"name": "Block17_7_Branch_1_Conv2d_0b_1x7_Activation", "trainable": true, "dtype": "float32", "activation": "relu"}, "inbound_nodes": [[["Block17_7_Branch_1_Conv2d_0b_1x7_BatchNorm", 0, 0, {}]]]}, {"name": "Block17_7_Branch_0_Conv2d_1x1", "class_name": "Conv2D", "config": {"name": "Block17_7_Branch_0_Conv2d_1x1", "trainable": true, "dtype": "float32", "filters": 128, "kernel_size": [1, 1], "strides": [1, 1], "padding": "same", "data_format": "channels_last", "dilation_rate": [1, 1], "activation": "linear", "use_bias": false, "kernel_initializer": {"class_name": "VarianceScaling", "config": {"scale": 1.0, "mode": "fan_avg", "distribution": "uniform", "seed": null}}, "bias_initializer": {"class_name": "Zeros", "config": {}}, "kernel_regularizer": null, "bias_regularizer": null, "activity_regularizer": null, "kernel_constraint": null, "bias_constraint": null}, "inbound_nodes": [[["Block17_6_Activation", 0, 0, {}]]]}, {"name": "Block17_7_Branch_1_Conv2d_0c_7x1", "class_name": "Conv2D", "config": {"name": "Block17_7_Branch_1_Conv2d_0c_7x1", "trainable": true, "dtype": "float32", "filters": 128, "kernel_size": [7, 1], "strides": [1, 1], "padding": "same", "data_format": "channels_last", "dilation_rate": [1, 1], "activation": "linear", "use_bias": false, "kernel_initializer": {"class_name": "VarianceScaling", "config": {"scale": 1.0, "mode": "fan_avg", "distribution": "uniform", "seed": null}}, "bias_initializer": {"class_name": "Zeros", "config": {}}, "kernel_regularizer": null, "bias_regularizer": null, "activity_regularizer": null, "kernel_constraint": null, "bias_constraint": null}, "inbound_nodes": [[["Block17_7_Branch_1_Conv2d_0b_1x7_Activation", 0, 0, {}]]]}, {"name": "Block17_7_Branch_0_Conv2d_1x1_BatchNorm", "class_name": "BatchNormalization", "config": {"name": "Block17_7_Branch_0_Conv2d_1x1_BatchNorm", "trainable": true, "dtype": "float32", "axis": 3, "momentum": 0.995, "epsilon": 0.001, "center": true, "scale": false, "beta_initializer": {"class_name": "Zeros", "config": {}}, "gamma_initializer": {"class_name": "Ones", "config": {}}, "moving_mean_initializer": {"class_name": "Zeros", "config": {}}, "moving_variance_initializer": {"class_name": "Ones", "config": {}}, "beta_regularizer": null, "gamma_regularizer": null, "beta_constraint": null, "gamma_constraint": null}, "inbound_nodes": [[["Block17_7_Branch_0_Conv2d_1x1", 0, 0, {}]]]}, {"name": "Block17_7_Branch_1_Conv2d_0c_7x1_BatchNorm", "class_name": "BatchNormalization", "config": {"name": "Block17_7_Branch_1_Conv2d_0c_7x1_BatchNorm", "trainable": true, "dtype": "float32", "axis": 3, "momentum": 0.995, "epsilon": 0.001, "center": true, "scale": false, "beta_initializer": {"class_name": "Zeros", "config": {}}, "gamma_initializer": {"class_name": "Ones", "config": {}}, "moving_mean_initializer": {"class_name": "Zeros", "config": {}}, "moving_variance_initializer": {"class_name": "Ones", "config": {}}, "beta_regularizer": null, "gamma_regularizer": null, "beta_constraint": null, "gamma_constraint": null}, "inbound_nodes": [[["Block17_7_Branch_1_Conv2d_0c_7x1", 0, 0, {}]]]}, {"name": "Block17_7_Branch_0_Conv2d_1x1_Activation", "class_name": "Activation", "config": {"name": "Block17_7_Branch_0_Conv2d_1x1_Activation", "trainable": true, "dtype": "float32", "activation": "relu"}, "inbound_nodes": [[["Block17_7_Branch_0_Conv2d_1x1_BatchNorm", 0, 0, {}]]]}, {"name": "Block17_7_Branch_1_Conv2d_0c_7x1_Activation", "class_name": "Activation", "config": {"name": "Block17_7_Branch_1_Conv2d_0c_7x1_Activation", "trainable": true, "dtype": "float32", "activation": "relu"}, "inbound_nodes": [[["Block17_7_Branch_1_Conv2d_0c_7x1_BatchNorm", 0, 0, {}]]]}, {"name": "Block17_7_Concatenate", "class_name": "Concatenate", "config": {"name": "Block17_7_Concatenate", "trainable": true, "dtype": "float32", "axis": 3}, "inbound_nodes": [[["Block17_7_Branch_0_Conv2d_1x1_Activation", 0, 0, {}], ["Block17_7_Branch_1_Conv2d_0c_7x1_Activation", 0, 0, {}]]]}, {"name": "Block17_7_Conv2d_1x1", "class_name": "Conv2D", "config": {"name": "Block17_7_Conv2d_1x1", "trainable": true, "dtype": "float32", "filters": 896, "kernel_size": [1, 1], "strides": [1, 1], "padding": "same", "data_format": "channels_last", "dilation_rate": [1, 1], "activation": "linear", "use_bias": true, "kernel_initializer": {"class_name": "VarianceScaling", "config": {"scale": 1.0, "mode": "fan_avg", "distribution": "uniform", "seed": null}}, "bias_initializer": {"class_name": "Zeros", "config": {}}, "kernel_regularizer": null, "bias_regularizer": null, "activity_regularizer": null, "kernel_constraint": null, "bias_constraint": null}, "inbound_nodes": [[["Block17_7_Concatenate", 0, 0, {}]]]}, {"name": "lambda_62", "class_name": "Lambda01", "config": {"name": "lambda_62", "trainable": true, "dtype": "float32", "function": ["4wIAAAAAAAAAAgAAAAIAAABDAAAAcwgAAAB8AHwBFABTACkBTqkAKQLaAXjaBXNjYWxlcgEAAABy\nAQAAAPpSQzpcVXNlcnNcMVxEZXNrdG9wXHRlbnNvcmZsb3dca2VyYXMtZmFjZW5ldC1tYXN0ZXJc\nbm90ZWJvb2tcaW5jZXB0aW9uX3Jlc25ldF92MS5wedoHc2NhbGluZxkAAABzAgAAAAAB\n", null, null], "function_type": "lambda", "output_shape": [8, 8, 896], "output_shape_type": "raw", "arguments": {"scale": 0.1}}, "inbound_nodes": [[["Block17_7_Conv2d_1x1", 0, 0, {}]]]}, {"name": "add_54", "class_name": "Add", "config": {"name": "add_54", "trainable": true, "dtype": "float32"}, "inbound_nodes": [[["Block17_6_Activation", 0, 0, {}], ["lambda_62", 0, 0, {}]]]}, {"name": "Block17_7_Activation", "class_name": "Activation", "config": {"name": "Block17_7_Activation", "trainable": true, "dtype": "float32", "activation": "relu"}, "inbound_nodes": [[["add_54", 0, 0, {}]]]}, {"name": "Block17_8_Branch_1_Conv2d_0a_1x1", "class_name": "Conv2D", "config": {"name": "Block17_8_Branch_1_Conv2d_0a_1x1", "trainable": true, "dtype": "float32", "filters": 128, "kernel_size": [1, 1], "strides": [1, 1], "padding": "same", "data_format": "channels_last", "dilation_rate": [1, 1], "activation": "linear", "use_bias": false, "kernel_initializer": {"class_name": "VarianceScaling", "config": {"scale": 1.0, "mode": "fan_avg", "distribution": "uniform", "seed": null}}, "bias_initializer": {"class_name": "Zeros", "config": {}}, "kernel_regularizer": null, "bias_regularizer": null, "activity_regularizer": null, "kernel_constraint": null, "bias_constraint": null}, "inbound_nodes": [[["Block17_7_Activation", 0, 0, {}]]]}, {"name": "Block17_8_Branch_1_Conv2d_0a_1x1_BatchNorm", "class_name": "BatchNormalization", "config": {"name": "Block17_8_Branch_1_Conv2d_0a_1x1_BatchNorm", "trainable": true, "dtype": "float32", "axis": 3, "momentum": 0.995, "epsilon": 0.001, "center": true, "scale": false, "beta_initializer": {"class_name": "Zeros", "config": {}}, "gamma_initializer": {"class_name": "Ones", "config": {}}, "moving_mean_initializer": {"class_name": "Zeros", "config": {}}, "moving_variance_initializer": {"class_name": "Ones", "config": {}}, "beta_regularizer": null, "gamma_regularizer": null, "beta_constraint": null, "gamma_constraint": null}, "inbound_nodes": [[["Block17_8_Branch_1_Conv2d_0a_1x1", 0, 0, {}]]]}, {"name": "Block17_8_Branch_1_Conv2d_0a_1x1_Activation", "class_name": "Activation", "config": {"name": "Block17_8_Branch_1_Conv2d_0a_1x1_Activation", "trainable": true, "dtype": "float32", "activation": "relu"}, "inbound_nodes": [[["Block17_8_Branch_1_Conv2d_0a_1x1_BatchNorm", 0, 0, {}]]]}, {"name": "Block17_8_Branch_1_Conv2d_0b_1x7", "class_name": "Conv2D", "config": {"name": "Block17_8_Branch_1_Conv2d_0b_1x7", "trainable": true, "dtype": "float32", "filters": 128, "kernel_size": [1, 7], "strides": [1, 1], "padding": "same", "data_format": "channels_last", "dilation_rate": [1, 1], "activation": "linear", "use_bias": false, "kernel_initializer": {"class_name": "VarianceScaling", "config": {"scale": 1.0, "mode": "fan_avg", "distribution": "uniform", "seed": null}}, "bias_initializer": {"class_name": "Zeros", "config": {}}, "kernel_regularizer": null, "bias_regularizer": null, "activity_regularizer": null, "kernel_constraint": null, "bias_constraint": null}, "inbound_nodes": [[["Block17_8_Branch_1_Conv2d_0a_1x1_Activation", 0, 0, {}]]]}, {"name": "Block17_8_Branch_1_Conv2d_0b_1x7_BatchNorm", "class_name": "BatchNormalization", "config": {"name": "Block17_8_Branch_1_Conv2d_0b_1x7_BatchNorm", "trainable": true, "dtype": "float32", "axis": 3, "momentum": 0.995, "epsilon": 0.001, "center": true, "scale": false, "beta_initializer": {"class_name": "Zeros", "config": {}}, "gamma_initializer": {"class_name": "Ones", "config": {}}, "moving_mean_initializer": {"class_name": "Zeros", "config": {}}, "moving_variance_initializer": {"class_name": "Ones", "config": {}}, "beta_regularizer": null, "gamma_regularizer": null, "beta_constraint": null, "gamma_constraint": null}, "inbound_nodes": [[["Block17_8_Branch_1_Conv2d_0b_1x7", 0, 0, {}]]]}, {"name": "Block17_8_Branch_1_Conv2d_0b_1x7_Activation", "class_name": "Activation", "config": {"name": "Block17_8_Branch_1_Conv2d_0b_1x7_Activation", "trainable": true, "dtype": "float32", "activation": "relu"}, "inbound_nodes": [[["Block17_8_Branch_1_Conv2d_0b_1x7_BatchNorm", 0, 0, {}]]]}, {"name": "Block17_8_Branch_0_Conv2d_1x1", "class_name": "Conv2D", "config": {"name": "Block17_8_Branch_0_Conv2d_1x1", "trainable": true, "dtype": "float32", "filters": 128, "kernel_size": [1, 1], "strides": [1, 1], "padding": "same", "data_format": "channels_last", "dilation_rate": [1, 1], "activation": "linear", "use_bias": false, "kernel_initializer": {"class_name": "VarianceScaling", "config": {"scale": 1.0, "mode": "fan_avg", "distribution": "uniform", "seed": null}}, "bias_initializer": {"class_name": "Zeros", "config": {}}, "kernel_regularizer": null, "bias_regularizer": null, "activity_regularizer": null, "kernel_constraint": null, "bias_constraint": null}, "inbound_nodes": [[["Block17_7_Activation", 0, 0, {}]]]}, {"name": "Block17_8_Branch_1_Conv2d_0c_7x1", "class_name": "Conv2D", "config": {"name": "Block17_8_Branch_1_Conv2d_0c_7x1", "trainable": true, "dtype": "float32", "filters": 128, "kernel_size": [7, 1], "strides": [1, 1], "padding": "same", "data_format": "channels_last", "dilation_rate": [1, 1], "activation": "linear", "use_bias": false, "kernel_initializer": {"class_name": "VarianceScaling", "config": {"scale": 1.0, "mode": "fan_avg", "distribution": "uniform", "seed": null}}, "bias_initializer": {"class_name": "Zeros", "config": {}}, "kernel_regularizer": null, "bias_regularizer": null, "activity_regularizer": null, "kernel_constraint": null, "bias_constraint": null}, "inbound_nodes": [[["Block17_8_Branch_1_Conv2d_0b_1x7_Activation", 0, 0, {}]]]}, {"name": "Block17_8_Branch_0_Conv2d_1x1_BatchNorm", "class_name": "BatchNormalization", "config": {"name": "Block17_8_Branch_0_Conv2d_1x1_BatchNorm", "trainable": true, "dtype": "float32", "axis": 3, "momentum": 0.995, "epsilon": 0.001, "center": true, "scale": false, "beta_initializer": {"class_name": "Zeros", "config": {}}, "gamma_initializer": {"class_name": "Ones", "config": {}}, "moving_mean_initializer": {"class_name": "Zeros", "config": {}}, "moving_variance_initializer": {"class_name": "Ones", "config": {}}, "beta_regularizer": null, "gamma_regularizer": null, "beta_constraint": null, "gamma_constraint": null}, "inbound_nodes": [[["Block17_8_Branch_0_Conv2d_1x1", 0, 0, {}]]]}, {"name": "Block17_8_Branch_1_Conv2d_0c_7x1_BatchNorm", "class_name": "BatchNormalization", "config": {"name": "Block17_8_Branch_1_Conv2d_0c_7x1_BatchNorm", "trainable": true, "dtype": "float32", "axis": 3, "momentum": 0.995, "epsilon": 0.001, "center": true, "scale": false, "beta_initializer": {"class_name": "Zeros", "config": {}}, "gamma_initializer": {"class_name": "Ones", "config": {}}, "moving_mean_initializer": {"class_name": "Zeros", "config": {}}, "moving_variance_initializer": {"class_name": "Ones", "config": {}}, "beta_regularizer": null, "gamma_regularizer": null, "beta_constraint": null, "gamma_constraint": null}, "inbound_nodes": [[["Block17_8_Branch_1_Conv2d_0c_7x1", 0, 0, {}]]]}, {"name": "Block17_8_Branch_0_Conv2d_1x1_Activation", "class_name": "Activation", "config": {"name": "Block17_8_Branch_0_Conv2d_1x1_Activation", "trainable": true, "dtype": "float32", "activation": "relu"}, "inbound_nodes": [[["Block17_8_Branch_0_Conv2d_1x1_BatchNorm", 0, 0, {}]]]}, {"name": "Block17_8_Branch_1_Conv2d_0c_7x1_Activation", "class_name": "Activation", "config": {"name": "Block17_8_Branch_1_Conv2d_0c_7x1_Activation", "trainable": true, "dtype": "float32", "activation": "relu"}, "inbound_nodes": [[["Block17_8_Branch_1_Conv2d_0c_7x1_BatchNorm", 0, 0, {}]]]}, {"name": "Block17_8_Concatenate", "class_name": "Concatenate", "config": {"name": "Block17_8_Concatenate", "trainable": true, "dtype": "float32", "axis": 3}, "inbound_nodes": [[["Block17_8_Branch_0_Conv2d_1x1_Activation", 0, 0, {}], ["Block17_8_Branch_1_Conv2d_0c_7x1_Activation", 0, 0, {}]]]}, {"name": "Block17_8_Conv2d_1x1", "class_name": "Conv2D", "config": {"name": "Block17_8_Conv2d_1x1", "trainable": true, "dtype": "float32", "filters": 896, "kernel_size": [1, 1], "strides": [1, 1], "padding": "same", "data_format": "channels_last", "dilation_rate": [1, 1], "activation": "linear", "use_bias": true, "kernel_initializer": {"class_name": "VarianceScaling", "config"…
"name": "Bottleneck", "trainable": true, "dtype": "float32", "units": 128, "activation": "linear", "use_bias": false, "kernel_initializer": {"class_name": "VarianceScaling", "config": {"scale": 1.0, "mode": "fan_avg", "distribution": "uniform", "seed": null}}, "bias_initializer": {"class_name": "Zeros", "config": {}}, "kernel_regularizer": null, "bias_regularizer": null, "activity_regularizer": null, "kernel_constraint": null, "bias_constraint": null}, "inbound_nodes": [[["Dropout", 0, 0, {}]]]}, {"name": "Bottleneck_BatchNorm", "class_name": "BatchNormalization", "config": {"name": "Bottleneck_BatchNorm", "trainable": true, "dtype": "float32", "axis": -1, "momentum": 0.995, "epsilon": 0.001, "center": true, "scale": false, "beta_initializer": {"class_name": "Zeros", "config": {}}, "gamma_initializer": {"class_name": "Ones", "config": {}}, "moving_mean_initializer": {"class_name": "Zeros", "config": {}}, "moving_variance_initializer": {"class_name": "Ones", "config": {}}, "beta_regularizer": null, "gamma_regularizer": null, "beta_constraint": null, "gamma_constraint": null}, "inbound_nodes": [[["Bottleneck", 0, 0, {}]]]}], "input_layers": [["input_25", 0, 0]], "output_layers": [["Bottleneck_BatchNorm", 0, 0]]}}}, "weightsManifest": [{"paths": ["group1-shard1of22.bin", "group1-shard2of22.bin", "group1-shard3of22.bin", "group1-shard4of22.bin", "group1-shard5of22.bin", "group1-shard6of22.bin", "group1-shard7of22.bin", "group1-shard8of22.bin", "group1-shard9of22.bin", "group1-shard10of22.bin", "group1-shard11of22.bin", "group1-shard12of22.bin", "group1-shard13of22.bin", "group1-shard14of22.bin", "group1-shard15of22.bin", "group1-shard16of22.bin", "group1-shard17of22.bin", "group1-shard18of22.bin", "group1-shard19of22.bin", "group1-shard20of22.bin", "group1-shard21of22.bin", "group1-shard22of22.bin"], "weights": [{"name": "Block17_10_Branch_0_Conv2d_1x1/kernel", "shape": [1, 1, 896, 128], "dtype": "float32"}, {"name": "Block17_10_Branch_0_Conv2d_1x1_BatchNorm/beta", "shape": [128], "dtype": "float32"}, {"name": "Block17_10_Branch_0_Conv2d_1x1_BatchNorm/moving_mean", "shape": [128], "dtype": "float32"}, {"name": "Block17_10_Branch_0_Conv2d_1x1_BatchNorm/moving_variance", "shape": [128], "dtype": "float32"}, {"name": "Block17_10_Branch_1_Conv2d_0a_1x1/kernel", "shape": [1, 1, 896, 128], "dtype": "float32"}, {"name": "Block17_10_Branch_1_Conv2d_0a_1x1_BatchNorm/beta", "shape": [128], "dtype": "float32"}, {"name": "Block17_10_Branch_1_Conv2d_0a_1x1_BatchNorm/moving_mean", "shape": [128], "dtype": "float32"}, {"name": "Block17_10_Branch_1_Conv2d_0a_1x1_BatchNorm/moving_variance", "shape": [128], "dtype": "float32"}, {"name": "Block17_10_Branch_1_Conv2d_0b_1x7/kernel", "shape": [1, 7, 128, 128], "dtype": "float32"}, {"name": "Block17_10_Branch_1_Conv2d_0b_1x7_BatchNorm/beta", "shape": [128], "dtype": "float32"}, {"name": "Block17_10_Branch_1_Conv2d_0b_1x7_BatchNorm/moving_mean", "shape": [128], "dtype": "float32"}, {"name": "Block17_10_Branch_1_Conv2d_0b_1x7_BatchNorm/moving_variance", "shape": [128], "dtype": "float32"}, {"name": "Block17_10_Branch_1_Conv2d_0c_7x1/kernel", "shape": [7, 1, 128, 128], "dtype": "float32"}, {"name": "Block17_10_Branch_1_Conv2d_0c_7x1_BatchNorm/beta", "shape": [128], "dtype": "float32"}, {"name": "Block17_10_Branch_1_Conv2d_0c_7x1_BatchNorm/moving_mean", "shape": [128], "dtype": "float32"}, {"name": "Block17_10_Branch_1_Conv2d_0c_7x1_BatchNorm/moving_variance", "shape": [128], "dtype": "float32"}, {"name": "Block17_10_Conv2d_1x1/kernel", "shape": [1, 1, 256, 896], "dtype": "float32"}, {"name": "Block17_10_Conv2d_1x1/bias", "shape": [896], "dtype": "float32"}, {"name": "Block17_1_Branch_0_Conv2d_1x1/kernel", "shape": [1, 1, 896, 128], "dtype": "float32"}, {"name": "Block17_1_Branch_0_Conv2d_1x1_BatchNorm/beta", "shape": [128], "dtype": "float32"}, {"name": "Block17_1_Branch_0_Conv2d_1x1_BatchNorm/moving_mean", "shape": [128], "dtype": "float32"}, {"name": "Block17_1_Branch_0_Conv2d_1x1_BatchNorm/moving_variance", "shape": [128], "dtype": "float32"}, {"name": "Block17_1_Branch_1_Conv2d_0a_1x1/kernel", "shape": [1, 1, 896, 128], "dtype": "float32"}, {"name": "Block17_1_Branch_1_Conv2d_0a_1x1_BatchNorm/beta", "shape": [128], "dtype": "float32"}, {"name": "Block17_1_Branch_1_Conv2d_0a_1x1_BatchNorm/moving_mean", "shape": [128], "dtype": "float32"}, {"name": "Block17_1_Branch_1_Conv2d_0a_1x1_BatchNorm/moving_variance", "shape": [128], "dtype": "float32"}, {"name": "Block17_1_Branch_1_Conv2d_0b_1x7/kernel", "shape": [1, 7, 128, 128], "dtype": "float32"}, {"name": "Block17_1_Branch_1_Conv2d_0b_1x7_BatchNorm/beta", "shape": [128], "dtype": "float32"}, {"name": "Block17_1_Branch_1_Conv2d_0b_1x7_BatchNorm/moving_mean", "shape": [128], "dtype": "float32"}, {"name": "Block17_1_Branch_1_Conv2d_0b_1x7_BatchNorm/moving_variance", "shape": [128], "dtype": "float32"}, {"name": "Block17_1_Branch_1_Conv2d_0c_7x1/kernel", "shape": [7, 1, 128, 128], "dtype": "float32"}, {"name": "Block17_1_Branch_1_Conv2d_0c_7x1_BatchNorm/beta", "shape": [128], "dtype": "float32"}, {"name": "Block17_1_Branch_1_Conv2d_0c_7x1_BatchNorm/moving_mean", "shape": [128], "dtype": "float32"}, {"name": "Block17_1_Branch_1_Conv2d_0c_7x1_BatchNorm/moving_variance", "shape": [128], "dtype": "float32"}, {"name": "Block17_1_Conv2d_1x1/kernel", "shape": [1, 1, 256, 896], "dtype": "float32"}, {"name": "Block17_1_Conv2d_1x1/bias", "shape": [896], "dtype": "float32"}, {"name": "Block17_2_Branch_0_Conv2d_1x1/kernel", "shape": [1, 1, 896, 128], "dtype": "float32"}, {"name": "Block17_2_Branch_0_Conv2d_1x1_BatchNorm/beta", "shape": [128], "dtype": "float32"}, {"name": "Block17_2_Branch_0_Conv2d_1x1_BatchNorm/moving_mean", "shape": [128], "dtype": "float32"}, {"name": "Block17_2_Branch_0_Conv2d_1x1_BatchNorm/moving_variance", "shape": [128], "dtype": "float32"}, {"name": "Block17_2_Branch_1_Conv2d_0a_1x1/kernel", "shape": [1, 1, 896, 128], "dtype": "float32"}, {"name": "Block17_2_Branch_1_Conv2d_0a_1x1_BatchNorm/beta", "shape": [128], "dtype": "float32"}, {"name": "Block17_2_Branch_1_Conv2d_0a_1x1_BatchNorm/moving_mean", "shape": [128], "dtype": "float32"}, {"name": "Block17_2_Branch_1_Conv2d_0a_1x1_BatchNorm/moving_variance", "shape": [128], "dtype": "float32"}, {"name": "Block17_2_Branch_1_Conv2d_0b_1x7/kernel", "shape": [1, 7, 128, 128], "dtype": "float32"}, {"name": "Block17_2_Branch_1_Conv2d_0b_1x7_BatchNorm/beta", "shape": [128], "dtype": "float32"}, {"name": "Block17_2_Branch_1_Conv2d_0b_1x7_BatchNorm/moving_mean", "shape": [128], "dtype": "float32"}, {"name": "Block17_2_Branch_1_Conv2d_0b_1x7_BatchNorm/moving_variance", "shape": [128], "dtype": "float32"}, {"name": "Block17_2_Branch_1_Conv2d_0c_7x1/kernel", "shape": [7, 1, 128, 128], "dtype": "float32"}, {"name": "Block17_2_Branch_1_Conv2d_0c_7x1_BatchNorm/beta", "shape": [128], "dtype": "float32"}, {"name": "Block17_2_Branch_1_Conv2d_0c_7x1_BatchNorm/moving_mean", "shape": [128], "dtype": "float32"}, {"name": "Block17_2_Branch_1_Conv2d_0c_7x1_BatchNorm/moving_variance", "shape": [128], "dtype": "float32"}, {"name": "Block17_2_Conv2d_1x1/kernel", "shape": [1, 1, 256, 896], "dtype": "float32"}, {"name": "Block17_2_Conv2d_1x1/bias", "shape": [896], "dtype": "float32"}, {"name": "Block17_3_Branch_0_Conv2d_1x1/kernel", "shape": [1, 1, 896, 128], "dtype": "float32"}, {"name": "Block17_3_Branch_0_Conv2d_1x1_BatchNorm/beta", "shape": [128], "dtype": "float32"}, {"name": "Block17_3_Branch_0_Conv2d_1x1_BatchNorm/moving_mean", "shape": [128], "dtype": "float32"}, {"name": "Block17_3_Branch_0_Conv2d_1x1_BatchNorm/moving_variance", "shape": [128], "dtype": "float32"}, {"name": "Block17_3_Branch_1_Conv2d_0a_1x1/kernel", "shape": [1, 1, 896, 128], "dtype": "float32"}, {"name": "Block17_3_Branch_1_Conv2d_0a_1x1_BatchNorm/beta", "shape": [128], "dtype": "float32"}, {"name": "Block17_3_Branch_1_Conv2d_0a_1x1_BatchNorm/moving_mean", "shape": [128], "dtype": "float32"}, {"name": "Block17_3_Branch_1_Conv2d_0a_1x1_BatchNorm/moving_variance", "shape": [128], "dtype": "float32"}, {"name": "Block17_3_Branch_1_Conv2d_0b_1x7/kernel", "shape": [1, 7, 128, 128], "dtype": "float32"}, {"name": "Block17_3_Branch_1_Conv2d_0b_1x7_BatchNorm/beta", "shape": [128], "dtype": "float32"}, {"name": "Block17_3_Branch_1_Conv2d_0b_1x7_BatchNorm/moving_mean", "shape": [128], "dtype": "float32"}, {"name": "Block17_3_Branch_1_Conv2d_0b_1x7_BatchNorm/moving_variance", "shape": [128], "dtype": "float32"}, {"name": "Block17_3_Branch_1_Conv2d_0c_7x1/kernel", "shape": [7, 1, 128, 128], "dtype": "float32"}, {"name": "Block17_3_Branch_1_Conv2d_0c_7x1_BatchNorm/beta", "shape": [128], "dtype": "float32"}, {"name": "Block17_3_Branch_1_Conv2d_0c_7x1_BatchNorm/moving_mean", "shape": [128], "dtype": "float32"}, {"name": "Block17_3_Branch_1_Conv2d_0c_7x1_BatchNorm/moving_variance", "shape": [128], "dtype": "float32"}, {"name": "Block17_3_Conv2d_1x1/kernel", "shape": [1, 1, 256, 896], "dtype": "float32"}, {"name": "Block17_3_Conv2d_1x1/bias", "shape": [896], "dtype": "float32"}, {"name": "Block17_4_Branch_0_Conv2d_1x1/kernel", "shape": [1, 1, 896, 128], "dtype": "float32"}, {"name": "Block17_4_Branch_0_Conv2d_1x1_BatchNorm/beta", "shape": [128], "dtype": "float32"}, {"name": "Block17_4_Branch_0_Conv2d_1x1_BatchNorm/moving_mean", "shape": [128], "dtype": "float32"}, {"name": "Block17_4_Branch_0_Conv2d_1x1_BatchNorm/moving_variance", "shape": [128], "dtype": "float32"}, {"name": "Block17_4_Branch_1_Conv2d_0a_1x1/kernel", "shape": [1, 1, 896, 128], "dtype": "float32"}, {"name": "Block17_4_Branch_1_Conv2d_0a_1x1_BatchNorm/beta", "shape": [128], "dtype": "float32"}, {"name": "Block17_4_Branch_1_Conv2d_0a_1x1_BatchNorm/moving_mean", "shape": [128], "dtype": "float32"}, {"name": "Block17_4_Branch_1_Conv2d_0a_1x1_BatchNorm/moving_variance", "shape": [128], "dtype": "float32"}, {"name": "Block17_4_Branch_1_Conv2d_0b_1x7/kernel", "shape": [1, 7, 128, 128], "dtype": "float32"}, {"name": "Block17_4_Branch_1_Conv2d_0b_1x7_BatchNorm/beta", "shape": [128], "dtype": "float32"}, {"name": "Block17_4_Branch_1_Conv2d_0b_1x7_BatchNorm/moving_mean", "shape": [128], "dtype": "float32"}, {"name": "Block17_4_Branch_1_Conv2d_0b_1x7_BatchNorm/moving_variance", "shape": [128], "dtype": "float32"}, {"name": "Block17_4_Branch_1_Conv2d_0c_7x1/kernel", "shape": [7, 1, 128, 128], "dtype": "float32"}, {"name": "Block17_4_Branch_1_Conv2d_0c_7x1_BatchNorm/beta", "shape": [128], "dtype": "float32"}, {"name": "Block17_4_Branch_1_Conv2d_0c_7x1_BatchNorm/moving_mean", "shape": [128], "dtype": "float32"}, {"name": "Block17_4_Branch_1_Conv2d_0c_7x1_BatchNorm/moving_variance", "shape": [128], "dtype": "float32"}, {"name": "Block17_4_Conv2d_1x1/kernel", "shape": [1, 1, 256, 896], "dtype": "float32"}, {"name": "Block17_4_Conv2d_1x1/bias", "shape": [896], "dtype": "float32"}, {"name": "Block17_5_Branch_0_Conv2d_1x1/kernel", "shape": [1, 1, 896, 128], "dtype": "float32"}, {"name": "Block17_5_Branch_0_Conv2d_1x1_BatchNorm/beta", "shape": [128], "dtype": "float32"}, {"name": "Block17_5_Branch_0_Conv2d_1x1_BatchNorm/moving_mean", "shape": [128], "dtype": "float32"}, {"name": "Block17_5_Branch_0_Conv2d_1x1_BatchNorm/moving_variance", "shape": [128], "dtype": "float32"}, {"name": "Block17_5_Branch_1_Conv2d_0a_1x1/kernel", "shape": [1, 1, 896, 128], "dtype": "float32"}, {"name": "Block17_5_Branch_1_Conv2d_0a_1x1_BatchNorm/beta", "shape": [128], "dtype": "float32"}, {"name": "Block17_5_Branch_1_Conv2d_0a_1x1_BatchNorm/moving_mean", "shape": [128], "dtype": "float32"}, {"name": "Block17_5_Branch_1_Conv2d_0a_1x1_BatchNorm/moving_variance", "shape": [128], "dtype": "float32"}, {"name": "Block17_5_Branch_1_Conv2d_0b_1x7/kernel", "shape": [1, 7, 128, 128], "dtype": "float32"}, {"name": "Block17_5_Branch_1_Conv2d_0b_1x7_BatchNorm/beta", "shape": [128], "dtype": "float32"}, {"name": "Block17_5_Branch_1_Conv2d_0b_1x7_BatchNorm/moving_mean", "shape": [128], "dtype": "float32"}, {"name": "Block17_5_Branch_1_Conv2d_0b_1x7_BatchNorm/moving_variance", "shape": [128], "dtype": "float32"}, {"name": "Block17_5_Branch_1_Conv2d_0c_7x1/kernel", "shape": [7, 1, 128, 128], "dtype": "float32"}, {"name": "Block17_5_Branch_1_Conv2d_0c_7x1_BatchNorm/beta", "shape": [128], "dtype": "float32"}, {"name": "Block17_5_Branch_1_Conv2d_0c_7x1_BatchNorm/moving_mean", "shape": [128], "dtype": "float32"}, {"name": "Block17_5_Branch_1_Conv2d_0c_7x1_BatchNorm/moving_variance", "shape": [128], "dtype": "float32"}, {"name": "Block17_5_Conv2d_1x1/kernel", "shape": [1, 1, 256, 896], "dtype": "float32"}, {"name": "Block17_5_Conv2d_1x1/bias", "shape": [896], "dtype": "float32"}, {"name": "Block17_6_Branch_0_Conv2d_1x1/kernel", "shape": [1, 1, 896, 128], "dtype": "float32"}, {"name": "Block17_6_Branch_0_Conv2d_1x1_BatchNorm/beta", "shape": [128], "dtype": "float32"}, {"name": "Block17_6_Branch_0_Conv2d_1x1_BatchNorm/moving_mean", "shape": [128], "dtype": "float32"}, {"name": "Block17_6_Branch_0_Conv2d_1x1_BatchNorm/moving_variance", "shape": [128], "dtype": "float32"}, {"name": "Block17_6_Branch_1_Conv2d_0a_1x1/kernel", "shape": [1, 1, 896, 128], "dtype": "float32"}, {"name": "Block17_6_Branch_1_Conv2d_0a_1x1_BatchNorm/beta", "shape": [128], "dtype": "float32"}, {"name": "Block17_6_Branch_1_Conv2d_0a_1x1_BatchNorm/moving_mean", "shape": [128], "dtype": "float32"}, {"name": "Block17_6_Branch_1_Conv2d_0a_1x1_BatchNorm/moving_variance", "shape": [128], "dtype": "float32"}, {"name": "Block17_6_Branch_1_Conv2d_0b_1x7/kernel", "shape": [1, 7, 128, 128], "dtype": "float32"}, {"name": "Block17_6_Branch_1_Conv2d_0b_1x7_BatchNorm/beta", "shape": [128], "dtype": "float32"}, {"name": "Block17_6_Branch_1_Conv2d_0b_1x7_BatchNorm/moving_mean", "shape": [128], "dtype": "float32"}, {"name": "Block17_6_Branch_1_Conv2d_0b_1x7_BatchNorm/moving_variance", "shape": [128], "dtype": "float32"}, {"name": "Block17_6_Branch_1_Conv2d_0c_7x1/kernel", "shape": [7, 1, 128, 128], "dtype": "float32"}, {"name": "Block17_6_Branch_1_Conv2d_0c_7x1_BatchNorm/beta", "shape": [128], "dtype": "float32"}, {"name": "Block17_6_Branch_1_Conv2d_0c_7x1_BatchNorm/moving_mean", "shape": [128], "dtype": "float32"}, {"name": "Block17_6_Branch_1_Conv2d_0c_7x1_BatchNorm/moving_variance", "shape": [128], "dtype": "float32"}, {"name": "Block17_6_Conv2d_1x1/kernel", "shape": [1, 1, 256, 896], "dtype": "float32"}, {"name": "Block17_6_Conv2d_1x1/bias", "shape": [896], "dtype": "float32"}, {"name": "Block17_7_Branch_0_Conv2d_1x1/kernel", "shape": [1, 1, 896, 128], "dtype": "float32"}, {"name": "Block17_7_Branch_0_Conv2d_1x1_BatchNorm/beta", "shape": [128], "dtype": "float32"}, {"name": "Block17_7_Branch_0_Conv2d_1x1_BatchNorm/moving_mean", "shape": [128], "dtype": "float32"}, {"name": "Block17_7_Branch_0_Conv2d_1x1_BatchNorm/moving_variance", "shape": [128], "dtype": "float32"}, {"name": "Block17_7_Branch_1_Conv2d_0a_1x1/kernel", "shape": [1, 1, 896, 128], "dtype": "float32"}, {"name": "Block17_7_Branch_1_Conv2d_0a_1x1_BatchNorm/beta", "shape": [128], "dtype": "float32"}, {"name": "Block17_7_Branch_1_Conv2d_0a_1x1_BatchNorm/moving_mean", "shape": [128], "dtype": "float32"}, {"name": "Block17_7_Branch_1_Conv2d_0a_1x1_BatchNorm/moving_variance", "shape": [128], "dtype": "float32"}, {"name": "Block17_7_Branch_1_Conv2d_0b_1x7/kernel", "shape": [1, 7, 128, 128], "dtype": "float32"}, {"name": "Block17_7_Branch_1_Conv2d_0b_1x7_BatchNorm/beta", "shape": [128], "dtype": "float32"}, {"name": "Block17_7_Branch_1_Conv2d_0b_1x7_BatchNorm/moving_mean", "shape": [128], "dtype": "float32"}, {"name": "Block17_7_Branch_1_Conv2d_0b_1x7_BatchNorm/moving_variance", "shape": [128], "dtype": "float32"}, {"name": "Block17_7_Branch_1_Conv2d_0c_7x1/kernel", "shape": [7, 1, 128, 128], "dtype": "float32"}, {"name": "Block17_7_Branch_1_Conv2d_0c_7x1_BatchNorm/beta", "shape": [128], "dtype": "float32"}, {"name": "Block17_7_Branch_1_Conv2d_0c_7x1_BatchNorm/moving_mean", "shape": [128], "dtype": "float32"}, {"name": "Block17_7_Branch_1_Conv2d_0c_7x1_BatchNorm/moving_variance", "shape": [128], "dtype": "float32"}, {"name": "Block17_7_Conv2d_1x1/kernel", "shape": [1, 1, 256, 896], "dtype": "float32"}, {"name": "Block17_7_Conv2d_1x1/bias", "shape": [896], "dtype": "float32"}, {"name": "Block17_8_Branch_0_Conv2d_1x1/kernel", "shape": [1, 1, 896, 128], "dtype": "float32"}, {"name": "Block17_8_Branch_0_Conv2d_1x1_BatchNorm/beta", "shape": [128], "dtype": "float32"}, {"name": "Block17_8_Branch_0_Conv2d_1x1_BatchNorm/moving_mean", "shape": [128], "dtype": "float32"}, {"name": "Block17_8_Branch_0_Conv2d_1x1_BatchNorm/moving_variance", "shape": [128], "dtype": "float32"}, {"name": "Block17_8_Branch_1_Conv2d_0a_1x1/kernel", "shape": [1, 1, 896, 128], "dtype": "float32"}, {"name": "Block17_8_Branch_1_Conv2d_0a_1x1_BatchNorm/beta", "shape": [128], "dtype": "float32"}, {"name": "Block17_8_Branch_1_Conv2d_0a_1x1_BatchNorm/moving_mean", "shape": [128], "dtype": "float32"}, {"name": "Block17_8_Branch_1_Conv2d_0a_1x1_BatchNorm/moving_variance", "shape": [128], "dtype": "float32"}, {"name": "Block17_8_Branch_1_Conv2d_0b_1x7/kernel", "shape": [1, 7, 128, 128], "dtype": "float32"}, {"name": "Block17_8_Branch_1_Conv2d_0b_1x7_BatchNorm/beta", "shape": [128], "dtype": "float32"}, {"name": "Block17_8_Branch_1_Conv2d_0b_1x7_BatchNorm/moving_mean", "shape": [128], "dtype": "float32"}, {"name": "Block17_8_Branch_1_Conv2d_0b_1x7_BatchNorm/moving_variance", "shape": [128], "dtype": "float32"}, {"name": "Block17_8_Branch_1_Conv2d_0c_7x1/kernel", "shape": [7, 1, 128, 128], "dtype": "float32"}, {"name": "Block17_8_Branch_1_Conv2d_0c_7x1_BatchNorm/beta", "shape": [128], "dtype": "float32"}, {"name": "Block17_8_Branch_1_Conv2d_0c_7x1_BatchNorm/moving_mean", "shape": [128], "dtype": "float32"}, {"name": "Block17_8_Branch_1_Conv2d_0c_7x1_BatchNorm/moving_variance", "shape": [128], "dtype": "float32"}, {"name": "Block17_8_Conv2d_1x1/kernel", "shape": [1, 1, 256, 896], "dtype": "float32"}, {"name": "Block17_8_Conv2d_1x1/bias", "shape": [896], "dtype": "float32"}, {"name": "Block17_9_Branch_0_Conv2d_1x1/kernel", "shape": [1, 1, 896, 128], "dtype": "float32"}, {"name": "Block17_9_Branch_0_Conv2d_1x1_BatchNorm/beta", "shape": [128], "dtype": "float32"}, {"name": "Block17_9_Branch_0_Conv2d_1x1_BatchNorm/moving_mean", "shape": [128], "dtype": "float32"}, {"name": "Block17_9_Branch_0_Conv2d_1x1_BatchNorm/moving_variance", "shape": [128], "dtype": "float32"}, {"name": "Block17_9_Branch_1_Conv2d_0a_1x1/kernel", "shape": [1, 1, 896, 128], "dtype": "float32"}, {"name": "Block17_9_Branch_1_Conv2d_0a_1x1_BatchNorm/beta", "shape": [128], "dtype": "float32"}, {"name": "Block17_9_Branch_1_Conv2d_0a_1x1_BatchNorm/moving_mean", "shape": [128], "dtype": "float32"}, {"name": "Block17_9_Branch_1_Conv2d_0a_1x1_BatchNorm/moving_variance", "shape": [128], "dtype": "float32"}, {"name": "Block17_9_Branch_1_Conv2d_0b_1x7/kernel", "shape": [1, 7, 128, 128], "dtype": "float32"}, {"name": "Block17_9_Branch_1_Conv2d_0b_1x7_BatchNorm/beta", "shape": [128], "dtype": "float32"}, {"name": "Block17_9_Branch_1_Conv2d_0b_1x7_BatchNorm/moving_mean", "shape": [128], "dtype": "float32"}, {"name": "Block17_9_Branch_1_Conv2d_0b_1x7_BatchNorm/moving_variance", "shape": [128], "dtype": "float32"}, {"name": "Block17_9_Branch_1_Conv2d_0c_7x1/kernel", "shape": [7, 1, 128, 128], "dtype": "float32"}, {"name": "Block17_9_Branch_1_Conv2d_0c_7x1_BatchNorm/beta", "shape": [128], "dtype": "float32"}, {"name": "Block17_9_Branch_1_Conv2d_0c_7x1_BatchNorm/moving_mean", "shape": [128], "dtype": "float32"}, {"name": "Block17_9_Branch_1_Conv2d_0c_7x1_BatchNorm/moving_variance", "shape": [128], "dtype": "float32"}, {"name": "Block17_9_Conv2d_1x1/kernel", "shape": [1, 1, 256, 896], "dtype": "float32"}, {"name": "Block17_9_Conv2d_1x1/bias", "shape": [896], "dtype": "float32"}, {"name": "Block35_1_Branch_0_Conv2d_1x1/kernel", "shape": [1, 1, 256, 32], "dtype": "float32"}, {"name": "Block35_1_Branch_0_Conv2d_1x1_BatchNorm/beta", "shape": [32], "dtype": "float32"}, {"name": "Block35_1_Branch_0_Conv2d_1x1_BatchNorm/moving_mean", "shape": [32], "dtype": "float32"}, {"name": "Block35_1_Branch_0_Conv2d_1x1_BatchNorm/moving_variance", "shape": [32], "dtype": "float32"}, {"name": "Block35_1_Branch_1_Conv2d_0a_1x1/kernel", "shape": [1, 1, 256, 32], "dtype": "float32"}, {"name": "Block35_1_Branch_1_Conv2d_0a_1x1_BatchNorm/beta", "shape": [32], "dtype": "float32"}, {"name": "Block35_1_Branch_1_Conv2d_0a_1x1_BatchNorm/moving_mean", "shape": [32], "dtype": "float32"}, {"name": "Block35_1_Branch_1_Conv2d_0a_1x1_BatchNorm/moving_variance", "shape": [32], "dtype": "float32"}, {"name": "Block35_1_Branch_1_Conv2d_0b_3x3/kernel", "shape": [3, 3, 32, 32], "dtype": "float32"}, {"name": "Block35_1_Branch_1_Conv2d_0b_3x3_BatchNorm/beta", "shape": [32], "dtype": "float32"}, {"name": "Block35_1_Branch_1_Conv2d_0b_3x3_BatchNorm/moving_mean", "shape": [32], "dtype": "float32"}, {"name": "Block35_1_Branch_1_Conv2d_0b_3x3_BatchNorm/moving_variance", "shape": [32], "dtype": "float32"}, {"name": "Block35_1_Branch_2_Conv2d_0a_1x1/kernel", "shape": [1, 1, 256, 32], "dtype": "float32"}, {"name": "Block35_1_Branch_2_Conv2d_0a_1x1_BatchNorm/beta", "shape": [32], "dtype": "float32"}, {"name": "Block35_1_Branch_2_Conv2d_0a_1x1_BatchNorm/moving_mean", "shape": [32], "dtype": "float32"}, {"name": "Block35_1_Branch_2_Conv2d_0a_1x1_BatchNorm/moving_variance", "shape": [32], "dtype": "float32"}, {"name": "Block35_1_Branch_2_Conv2d_0b_3x3/kernel", "shape": [3, 3, 32, 32], "dtype": "float32"}, {"name": "Block35_1_Branch_2_Conv2d_0b_3x3_BatchNorm/beta", "shape": [32], "dtype": "float32"}, {"name": "Block35_1_Branch_2_Conv2d_0b_3x3_BatchNorm/moving_mean", "shape": [32], "dtype": "float32"}, {"name": "Block35_1_Branch_2_Conv2d_0b_3x3_BatchNorm/moving_variance", "shape": [32], "dtype": "float32"}, {"name": "Block35_1_Branch_2_Conv2d_0c_3x3/kernel", "shape": [3, 3, 32, 32], "dtype": "float32"}, {"name": "Block35_1_Branch_2_Conv2d_0c_3x3_BatchNorm/beta", "shape": [32], "dtype": "float32"}, {"name": "Block35_1_Branch_2_Conv2d_0c_3x3_BatchNorm/moving_mean", "shape": [32], "dtype": "float32"}, {"name": "Block35_1_Branch_2_Conv2d_0c_3x3_BatchNorm/moving_variance", "shape": [32], "dtype": "float32"}, {"name": "Block35_1_Conv2d_1x1/kernel", "shape": [1, 1, 96, 256], "dtype": "float32"}, {"name": "Block35_1_Conv2d_1x1/bias", "shape": [256], "dtype": "float32"}, {"name": "Block35_2_Branch_0_Conv2d_1x1/kernel", "shape": [1, 1, 256, 32], "dtype": "float32"}, {"name": "Block35_2_Branch_0_Conv2d_1x1_BatchNorm/beta", "shape": [32], "dtype": "float32"}, {"name": "Block35_2_Branch_0_Conv2d_1x1_BatchNorm/moving_mean", "shape": [32], "dtype": "float32"}, {"name": "Block35_2_Branch_0_Conv2d_1x1_BatchNorm/moving_variance", "shape": [32], "dtype": "float32"}, {"name": "Block35_2_Branch_1_Conv2d_0a_1x1/kernel", "shape": [1, 1, 256, 32], "dtype": "float32"}, {"name": "Block35_2_Branch_1_Conv2d_0a_1x1_BatchNorm/beta", "shape": [32], "dtype": "float32"}, {"name": "Block35_2_Branch_1_Conv2d_0a_1x1_BatchNorm/moving_mean", "shape": [32], "dtype": "float32"}, {"name": "Block35_2_Branch_1_Conv2d_0a_1x1_BatchNorm/moving_variance", "shape": [32], "dtype": "float32"}, {"name": "Block35_2_Branch_1_Conv2d_0b_3x3/kernel", "shape": [3, 3, 32, 32], "dtype": "float32"}, {"name": "Block35_2_Branch_1_Conv2d_0b_3x3_BatchNorm/beta", "shape": [32], "dtype": "float32"}, {"name": "Block35_2_Branch_1_Conv2d_0b_3x3_BatchNorm/moving_mean", "shape": [32], "dtype": "float32"}, {"name": "Block35_2_Branch_1_Conv2d_0b_3x3_BatchNorm/moving_variance", "shape": [32], "dtype": "float32"}, {"name": "Block35_2_Branch_2_Conv2d_0a_1x1/kernel", "shape": [1, 1, 256, 32], "dtype": "float32"}, {"name": "Block35_2_Branch_2_Conv2d_0a_1x1_BatchNorm/beta", "shape": [32], "dtype": "float32"}, {"name": "Block35_2_Branch_2_Conv2d_0a_1x1_BatchNorm/moving_mean", "shape": [32], "dtype": "float32"}, {"name": "Block35_2_Branch_2_Conv2d_0a_1x1_BatchNorm/moving_variance", "shape": [32], "dtype": "float32"}, {"name": "Block35_2_Branch_2_Conv2d_0b_3x3/kernel", "shape": [3, 3, 32, 32], "dtype": "float32"}, {"name": "Block35_2_Branch_2_Conv2d_0b_3x3_BatchNorm/beta", "shape": [32], "dtype": "float32"}, {"name": "Block35_2_Branch_2_Conv2d_0b_3x3_BatchNorm/moving_mean", "shape": [32], "dtype": "float32"}, {"name": "Block35_2_Branch_2_Conv2d_0b_3x3_BatchNorm/moving_variance", "shape": [32], "dtype": "float32"}, {"name": "Block35_2_Branch_2_Conv2d_0c_3x3/kernel", "shape": [3, 3, 32, 32], "dtype": "float32"}, {"name": "Block35_2_Branch_2_Conv2d_0c_3x3_BatchNorm/beta", "shape": [32], "dtype": "float32"}, {"name": "Block35_2_Branch_2_Conv2d_0c_3x3_BatchNorm/moving_mean", "shape": [32], "dtype": "float32"}, {"name": "Block35_2_Branch_2_Conv2d_0c_3x3_BatchNorm/moving_variance", "shape": [32], "dtype": "float32"}, {"name": "Block35_2_Conv2d_1x1/kernel", "shape": [1, 1, 96, 256], "dtype": "float32"}, {"name": "Block35_2_Conv2d_1x1/bias", "shape": [256], "dtype": "float32"}, {"name": "Block35_3_Branch_0_Conv2d_1x1/kernel", "shape": [1, 1, 256, 32], "dtype": "float32"}, {"name": "Block35_3_Branch_0_Conv2d_1x1_BatchNorm/beta", "shape": [32], "dtype": "float32"}, {"name": "Block35_3_Branch_0_Conv2d_1x1_BatchNorm/moving_mean", "shape": [32], "dtype": "float32"}, {"name": "Block35_3_Branch_0_Conv2d_1x1_BatchNorm/moving_variance", "shape": [32], "dtype": "float32"}, {"name": "Block35_3_Branch_1_Conv2d_0a_1x1/kernel", "shape": [1, 1, 256, 32], "dtype": "float32"}, {"name": "Block35_3_Branch_1_Conv2d_0a_1x1_BatchNorm/beta", "shape": [32], "dtype": "float32"}, {"name": "Block35_3_Branch_1_Conv2d_0a_1x1_BatchNorm/moving_mean", "shape": [32], "dtype": "float32"}, {"name": "Block35_3_Branch_1_Conv2d_0a_1x1_BatchNorm/moving_variance", "shape": [32], "dtype": "float32"}, {"name": "Block35_3_Branch_1_Conv2d_0b_3x3/kernel", "shape": [3, 3, 32, 32], "dtype": "float32"}, {"name": "Block35_3_Branch_1_Conv2d_0b_3x3_BatchNorm/beta", "shape": [32], "dtype": "float32"}, {"name": "Block35_3_Branch_1_Conv2d_0b_3x3_BatchNorm/moving_mean", "shape": [32], "dtype": "float32"}, {"name": "Block35_3_Branch_1_Conv2d_0b_3x3_BatchNorm/moving_variance", "shape": [32], "dtype": "float32"}, {"name": "Block35_3_Branch_2_Conv2d_0a_1x1/kernel", "shape": [1, 1, 256, 32], "dtype": "float32"}, {"name": "Block35_3_Branch_2_Conv2d_0a_1x1_BatchNorm/beta", "shape": [32], "dtype": "float32"}, {"name": "Block35_3_Branch_2_Conv2d_0a_1x1_BatchNorm/moving_mean", "shape": [32], "dtype": "float32"}, {"name": "Block35_3_Branch_2_Conv2d_0a_1x1_BatchNorm/moving_variance", "shape": [32], "dtype": "float32"}, {"name": "Block35_3_Branch_2_Conv2d_0b_3x3/kernel", "shape": [3, 3, 32, 32], "dtype": "float32"}, {"name": "Block35_3_Branch_2_Conv2d_0b_3x3_BatchNorm/beta", "shape": [32], "dtype": "float32"}, {"name": "Block35_3_Branch_2_Conv2d_0b_3x3_BatchNorm/moving_mean", "shape": [32], "dtype": "float32"}, {"name": "Block35_3_Branch_2_Conv2d_0b_3x3_BatchNorm/moving_variance", "shape": [32], "dtype": "float32"}, {"name": "Block35_3_Branch_2_Conv2d_0c_3x3/kernel", "shape": [3, 3, 32, 32], "dtype": "float32"}, {"name": "Block35_3_Branch_2_Conv2d_0c_3x3_BatchNorm/beta", "shape": [32], "dtype": "float32"}, {"name": "Block35_3_Branch_2_Conv2d_0c_3x3_BatchNorm/moving_mean", "shape": [32], "dtype": "float32"}, {"name": "Block35_3_Branch_2_Conv2d_0c_3x3_BatchNorm/moving_variance", "shape": [32], "dtype": "float32"}, {"name": "Block35_3_Conv2d_1x1/kernel", "shape": [1, 1, 96, 256], "dtype": "float32"}, {"name": "Block35_3_Conv2d_1x1/bias", "shape": [256], "dtype": "float32"}, {"name": "Block35_4_Branch_0_Conv2d_1x1/kernel", "shape": [1, 1, 256, 32], "dtype": "float32"}, {"name": "Block35_4_Branch_0_Conv2d_1x1_BatchNorm/beta", "shape": [32], "dtype": "float32"}, {"name": "Block35_4_Branch_0_Conv2d_1x1_BatchNorm/moving_mean", "shape": [32], "dtype": "float32"}, {"name": "Block35_4_Branch_0_Conv2d_1x1_BatchNorm/moving_variance", "shape": [32], "dtype": "float32"}, {"name": "Block35_4_Branch_1_Conv2d_0a_1x1/kernel", "shape": [1, 1, 256, 32], "dtype": "float32"}, {"name": "Block35_4_Branch_1_Conv2d_0a_1x1_BatchNorm/beta", "shape": [32], "dtype": "float32"}, {"name": "Block35_4_Branch_1_Conv2d_0a_1x1_BatchNorm/moving_mean", "shape": [32], "dtype": "float32"}, {"name": "Block35_4_Branch_1_Conv2d_0a_1x1_BatchNorm/moving_variance", "shape": [32], "dtype": "float32"}, {"name": "Block35_4_Branch_1_Conv2d_0b_3x3/kernel", "shape": [3, 3, 32, 32], "dtype": "float32"}, {"name": "Block35_4_Branch_1_Conv2d_0b_3x3_BatchNorm/beta", "shape": [32], "dtype": "float32"}, {"name": "Block35_4_Branch_1_Conv2d_0b_3x3_BatchNorm/moving_mean", "shape": [32], "dtype": "float32"}, {"name": "Block35_4_Branch_1_Conv2d_0b_3x3_BatchNorm/moving_variance", "shape": [32], "dtype": "float32"}, {"name": "Block35_4_Branch_2_Conv2d_0a_1x1/kernel", "shape": [1, 1, 256, 32], "dtype": "float32"}, {"name": "Block35_4_Branch_2_Conv2d_0a_1x1_BatchNorm/beta", "shape": [32], "dtype": "float32"}, {"name": "Block35_4_Branch_2_Conv2d_0a_1x1_BatchNorm/moving_mean", "shape": [32], "dtype": "float32"}, {"name": "Block35_4_Branch_2_Conv2d_0a_1x1_BatchNorm/moving_variance", "shape": [32], "dtype": "float32"}, {"name": "Block35_4_Branch_2_Conv2d_0b_3x3/kernel", "shape": [3, 3, 32, 32], "dtype": "float32"}, {"name": "Block35_4_Branch_2_Conv2d_0b_3x3_BatchNorm/beta", "shape": [32], "dtype": "float32"}, {"name": "Block35_4_Branch_2_Conv2d_0b_3x3_BatchNorm/moving_mean", "shape": [32], "dtype": "float32"}, {"name": "Block35_4_Branch_2_Conv2d_0b_3x3_BatchNorm/moving_variance", "shape": [32], "dtype": "float32"}, {"name": "Block35_4_Branch_2_Conv2d_0c_3x3/kernel", "shape": [3, 3, 32, 32], "dtype": "float32"}, {"name": "Block35_4_Branch_2_Conv2d_0c_3x3_BatchNorm/beta", "shape": [32], "dtype": "float32"}, {"name": "Block35_4_Branch_2_Conv2d_0c_3x3_BatchNorm/moving_mean", "shape": [32], "dtype": "float32"}, {"name": "Block35_4_Branch_2_Conv2d_0c_3x3_BatchNorm/moving_variance", "shape": [32], "dtype": "float32"}, {"name": "Block35_4_Conv2d_1x1/kernel", "shape": [1, 1, 96, 256], "dtype": "float32"}, {"name": "Block35_4_Conv2d_1x1/bias", "shape": [256], "dtype": "float32"}, {"name": "Block35_5_Branch_0_Conv2d_1x1/kernel", "shape": [1, 1, 256, 32], "dtype": "float32"}, {"name": "Block35_5_Branch_0_Conv2d_1x1_BatchNorm/beta", "shape": [32], "dtype": "float32"}, {"name": "Block35_5_Branch_0_Conv2d_1x1_BatchNorm/moving_mean", "shape": [32], "dtype": "float32"}, {"name": "Block35_5_Branch_0_Conv2d_1x1_BatchNorm/moving_variance", "shape": [32], "dtype": "float32"}, {"name": "Block35_5_Branch_1_Conv2d_0a_1x1/kernel", "shape": [1, 1, 256, 32], "dtype": "float32"}, {"name": "Block35_5_Branch_1_Conv2d_0a_1x1_BatchNorm/beta", "shape": [32], "dtype": "float32"}, {"name": "Block35_5_Branch_1_Conv2d_0a_1x1_BatchNorm/moving_mean", "shape": [32], "dtype": "float32"}, {"name": "Block35_5_Branch_1_Conv2d_0a_1x1_BatchNorm/moving_variance", "shape": [32], "dtype": "float32"}, {"name": "Block35_5_Branch_1_Conv2d_0b_3x3/kernel", "shape": [3, 3, 32, 32], "dtype": "float32"}, {"name": "Block35_5_Branch_1_Conv2d_0b_3x3_BatchNorm/beta", "shape": [32], "dtype": "float32"}, {"name": "Block35_5_Branch_1_Conv2d_0b_3x3_BatchNorm/moving_mean", "shape": [32], "dtype": "float32"}, {"name": "Block35_5_Branch_1_Conv2d_0b_3x3_BatchNorm/moving_variance", "shape": [32], "dtype": "float32"}, {"name": "Block35_5_Branch_2_Conv2d_0a_1x1/kernel", "shape": [1, 1, 256, 32], "dtype": "float32"}, {"name": "Block35_5_Branch_2_Conv2d_0a_1x1_BatchNorm/beta", "shape": [32], "dtype": "float32"}, {"name": "Block35_5_Branch_2_Conv2d_0a_1x1_BatchNorm/moving_mean", "shape": [32], "dtype": "float32"}, {"name": "Block35_5_Branch_2_Conv2d_0a_1x1_BatchNorm/moving_variance", "shape": [32], "dtype": "float32"}, {"name": "Block35_5_Branch_2_Conv2d_0b_3x3/kernel", "shape": [3, 3, 32, 32], "dtype": "float32"}, {"name": "Block35_5_Branch_2_Conv2d_0b_3x3_BatchNorm/beta", "shape": [32], "dtype": "float32"}, {"name": "Block35_5_Branch_2_Conv2d_0b_3x3_BatchNorm/moving_mean", "shape": [32], "dtype": "float32"}, {"name": "Block35_5_Branch_2_Conv2d_0b_3x3_BatchNorm/moving_variance", "shape": [32], "dtype": "float32"}, {"name": "Block35_5_Branch_2_Conv2d_0c_3x3/kernel", "shape": [3, 3, 32, 32], "dtype": "float32"}, {"name": "Block35_5_Branch_2_Conv2d_0c_3x3_BatchNorm/beta", "shape": [32], "dtype": "float32"}, {"name": "Block35_5_Branch_2_Conv2d_0c_3x3_BatchNorm/moving_mean", "shape": [32], "dtype": "float32"}, {"name": "Block35_5_Branch_2_Conv2d_0c_3x3_BatchNorm/moving_variance", "shape": [32], "dtype": "float32"}, {"name": "Block35_5_Conv2d_1x1/kernel", "shape": [1, 1, 96, 256], "dtype": "float32"}, {"name": "Block35_5_Conv2d_1x1/bias", "shape": [256], "dtype": "float32"}, {"name": "Block8_1_Branch_0_Conv2d_1x1/kernel", "shape": [1, 1, 1792, 192], "dtype": "float32"}, {"name": "Block8_1_Branch_0_Conv2d_1x1_BatchNorm/beta", "shape": [192], "dtype": "float32"}, {"name": "Block8_1_Branch_0_Conv2d_1x1_BatchNorm/moving_mean", "shape": [192], "dtype": "float32"}, {"name": "Block8_1_Branch_0_Conv2d_1x1_BatchNorm/moving_variance", "shape": [192], "dtype": "float32"}, {"name": "Block8_1_Branch_1_Conv2d_0a_1x1/kernel", "shape": [1, 1, 1792, 192], "dtype": "float32"}, {"name": "Block8_1_Branch_1_Conv2d_0a_1x1_BatchNorm/beta", "shape": [192], "dtype": "float32"}, {"name": "Block8_1_Branch_1_Conv2d_0a_1x1_BatchNorm/moving_mean", "shape": [192], "dtype": "float32"}, {"name": "Block8_1_Branch_1_Conv2d_0a_1x1_BatchNorm/moving_variance", "shape": [192], "dtype": "float32"}, {"name": "Block8_1_Branch_1_Conv2d_0b_1x3/kernel", "shape": [1, 3, 192, 192], "dtype": "float32"}, {"name": "Block8_1_Branch_1_Conv2d_0b_1x3_BatchNorm/beta", "shape": [192], "dtype": "float32"}, {"name": "Block8_1_Branch_1_Conv2d_0b_1x3_BatchNorm/moving_mean", "shape": [192], "dtype": "float32"}, {"name": "Block8_1_Branch_1_Conv2d_0b_1x3_BatchNorm/moving_variance", "shape": [192], "dtype": "float32"}, {"name": "Block8_1_Branch_1_Conv2d_0c_3x1/kernel", "shape": [3, 1, 192, 192], "dtype": "float32"}, {"name": "Block8_1_Branch_1_Conv2d_0c_3x1_BatchNorm/beta", "shape": [192], "dtype": "float32"}, {"name": "Block8_1_Branch_1_Conv2d_0c_3x1_BatchNorm/moving_mean", "shape": [192], "dtype": "float32"}, {"name": "Block8_1_Branch_1_Conv2d_0c_3x1_BatchNorm/moving_variance", "shape": [192], "dtype": "float32"}, {"name": "Block8_1_Conv2d_1x1/kernel", "shape": [1, 1, 384, 1792], "dtype": "float32"}, {"name": "Block8_1_Conv2d_1x1/bias", "shape": [1792], "dtype": "float32"}, {"name": "Block8_2_Branch_0_Conv2d_1x1/kernel", "shape": [1, 1, 1792, 192], "dtype": "float32"}, {"name": "Block8_2_Branch_0_Conv2d_1x1_BatchNorm/beta", "shape": [192], "dtype": "float32"}, {"name": "Block8_2_Branch_0_Conv2d_1x1_BatchNorm/moving_mean", "shape": [192], "dtype": "float32"}, {"name": "Block8_2_Branch_0_Conv2d_1x1_BatchNorm/moving_variance", "shape": [192], "dtype": "float32"}, {"name": "Block8_2_Branch_1_Conv2d_0a_1x1/kernel", "shape": [1, 1, 1792, 192], "dtype": "float32"}, {"name": "Block8_2_Branch_1_Conv2d_0a_1x1_BatchNorm/beta", "shape": [192], "dtype": "float32"}, {"name": "Block8_2_Branch_1_Conv2d_0a_1x1_BatchNorm/moving_mean", "shape": [192], "dtype": "float32"}, {"name": "Block8_2_Branch_1_Conv2d_0a_1x1_BatchNorm/moving_variance", "shape": [192], "dtype": "float32"}, {"name": "Block8_2_Branch_1_Conv2d_0b_1x3/kernel", "shape": [1, 3, 192, 192], "dtype": "float32"}, {"name": "Block8_2_Branch_1_Conv2d_0b_1x3_BatchNorm/beta", "shape": [192], "dtype": "float32"}, {"name": "Block8_2_Branch_1_Conv2d_0b_1x3_BatchNorm/moving_mean", "shape": [192], "dtype": "float32"}, {"name": "Block8_2_Branch_1_Conv2d_0b_1x3_BatchNorm/moving_variance", "shape": [192], "dtype": "float32"}, {"name": "Block8_2_Branch_1_Conv2d_0c_3x1/kernel", "shape": [3, 1, 192, 192], "dtype": "float32"}, {"name": "Block8_2_Branch_1_Conv2d_0c_3x1_BatchNorm/beta", "shape": [192], "dtype": "float32"}, {"name": "Block8_2_Branch_1_Conv2d_0c_3x1_BatchNorm/moving_mean", "shape": [192], "dtype": "float32"}, {"name": "Block8_2_Branch_1_Conv2d_0c_3x1_BatchNorm/moving_variance", "shape": [192], "dtype": "float32"}, {"name": "Block8_2_Conv2d_1x1/kernel", "shape": [1, 1, 384, 1792], "dtype": "float32"}, {"name": "Block8_2_Conv2d_1x1/bias", "shape": [1792], "dtype": "float32"}, {"name": "Block8_3_Branch_0_Conv2d_1x1/kernel", "shape": [1, 1, 1792, 192], "dtype": "float32"}, {"name": "Block8_3_Branch_0_Conv2d_1x1_BatchNorm/beta", "shape": [192], "dtype": "float32"}, {"name": "Block8_3_Branch_0_Conv2d_1x1_BatchNorm/moving_mean", "shape": [192], "dtype": "float32"}, {"name": "Block8_3_Branch_0_Conv2d_1x1_BatchNorm/moving_variance", "shape": [192], "dtype": "float32"}, {"name": "Block8_3_Branch_1_Conv2d_0a_1x1/kernel", "shape": [1, 1, 1792, 192], "dtype": "float32"}, {"name": "Block8_3_Branch_1_Conv2d_0a_1x1_BatchNorm/beta", "shape": [192], "dtype": "float32"}, {"name": "Block8_3_Branch_1_Conv2d_0a_1x1_BatchNorm/moving_mean", "shape": [192], "dtype": "float32"}, {"name": "Block8_3_Branch_1_Conv2d_0a_1x1_BatchNorm/moving_variance", "shape": [192], "dtype": "float32"}, {"name": "Block8_3_Branch_1_Conv2d_0b_1x3/kernel", "shape": [1, 3, 192, 192], "dtype": "float32"}, {"name": "Block8_3_Branch_1_Conv2d_0b_1x3_BatchNorm/beta", "shape": [192], "dtype": "float32"}, {"name": "Block8_3_Branch_1_Conv2d_0b_1x3_BatchNorm/moving_mean", "shape": [192], "dtype": "float32"}, {"name": "Block8_3_Branch_1_Conv2d_0b_1x3_BatchNorm/moving_variance", "shape": [192], "dtype": "float32"}, {"name": "Block8_3_Branch_1_Conv2d_0c_3x1/kernel", "shape": [3, 1, 192, 192], "dtype": "float32"}, {"name": "Block8_3_Branch_1_Conv2d_0c_3x1_BatchNorm/beta", "shape": [192], "dtype": "float32"}, {"name": "Block8_3_Branch_1_Conv2d_0c_3x1_BatchNorm/moving_mean", "shape": [192], "dtype": "float32"}, {"name": "Block8_3_Branch_1_Conv2d_0c_3x1_BatchNorm/moving_variance", "shape": [192], "dtype": "float32"}, {"name": "Block8_3_Conv2d_1x1/kernel", "shape": [1, 1, 384, 1792], "dtype": "float32"}, {"name": "Block8_3_Conv2d_1x1/bias", "shape": [1792], "dtype": "float32"}, {"name": "Block8_4_Branch_0_Conv2d_1x1/kernel", "shape": [1, 1, 1792, 192], "dtype": "float32"}, {"name": "Block8_4_Branch_0_Conv2d_1x1_BatchNorm/beta", "shape": [192], "dtype": "float32"}, {"name": "Block8_4_Branch_0_Conv2d_1x1_BatchNorm/moving_mean", "shape": [192], "dtype": "float32"}, {"name": "Block8_4_Branch_0_Conv2d_1x1_BatchNorm/moving_variance", "shape": [192], "dtype": "float32"}, {"name": "Block8_4_Branch_1_Conv2d_0a_1x1/kernel", "shape": [1, 1, 1792, 192], "dtype": "float32"}, {"name": "Block8_4_Branch_1_Conv2d_0a_1x1_BatchNorm/beta", "shape": [192], "dtype": "float32"}, {"name": "Block8_4_Branch_1_Conv2d_0a_1x1_BatchNorm/moving_mean", "shape": [192], "dtype": "float32"}, {"name": "Block8_4_Branch_1_Conv2d_0a_1x1_BatchNorm/moving_variance", "shape": [192], "dtype": "float32"}, {"name": "Block8_4_Branch_1_Conv2d_0b_1x3/kernel", "shape": [1, 3, 192, 192], "dtype": "float32"}, {"name": "Block8_4_Branch_1_Conv2d_0b_1x3_BatchNorm/beta", "shape": [192], "dtype": "float32"}, {"name": "Block8_4_Branch_1_Conv2d_0b_1x3_BatchNorm/moving_mean", "shape": [192], "dtype": "float32"}, {"name": "Block8_4_Branch_1_Conv2d_0b_1x3_BatchNorm/moving_variance", "shape": [192], "dtype": "float32"}, {"name": "Block8_4_Branch_1_Conv2d_0c_3x1/kernel", "shape": [3, 1, 192, 192], "dtype": "float32"}, {"name": "Block8_4_Branch_1_Conv2d_0c_3x1_BatchNorm/beta", "shape": [192], "dtype": "float32"}, {"name": "Block8_4_Branch_1_Conv2d_0c_3x1_BatchNorm/moving_mean", "shape": [192], "dtype": "float32"}, {"name": "Block8_4_Branch_1_Conv2d_0c_3x1_BatchNorm/moving_variance", "shape": [192], "dtype": "float32"}, {"name": "Block8_4_Conv2d_1x1/kernel", "shape": [1, 1, 384, 1792], "dtype": "float32"}, {"name": "Block8_4_Conv2d_1x1/bias", "shape": [1792], "dtype": "float32"}, {"name": "Block8_5_Branch_0_Conv2d_1x1/kernel", "shape": [1, 1, 1792, 192], "dtype": "float32"}, {"name": "Block8_5_Branch_0_Conv2d_1x1_BatchNorm/beta", "shape": [192], "dtype": "float32"}, {"name": "Block8_5_Branch_0_Conv2d_1x1_BatchNorm/moving_mean", "shape": [192], "dtype": "float32"}, {"name": "Block8_5_Branch_0_Conv2d_1x1_BatchNorm/moving_variance", "shape": [192], "dtype": "float32"}, {"name": "Block8_5_Branch_1_Conv2d_0a_1x1/kernel", "shape": [1, 1, 1792, 192], "dtype": "float32"}, {"name": "Block8_5_Branch_1_Conv2d_0a_1x1_BatchNorm/beta", "shape": [192], "dtype": "float32"}, {"name": "Block8_5_Branch_1_Conv2d_0a_1x1_BatchNorm/moving_mean", "shape": [192], "dtype": "float32"}, {"name": "Block8_5_Branch_1_Conv2d_0a_1x1_BatchNorm/moving_variance", "shape": [192], "dtype": "float32"}, {"name": "Block8_5_Branch_1_Conv2d_0b_1x3/kernel", "shape": [1, 3, 192, 192], "dtype": "float32"}, {"name": "Block8_5_Branch_1_Conv2d_0b_1x3_BatchNorm/beta", "shape": [192], "dtype": "float32"}, {"name": "Block8_5_Branch_1_Conv2d_0b_1x3_BatchNorm/moving_mean", "shape": [192], "dtype": "float32"}, {"name": "Block8_5_Branch_1_Conv2d_0b_1x3_BatchNorm/moving_variance", "shape": [192], "dtype": "float32"}, {"name": "Block8_5_Branch_1_Conv2d_0c_3x1/kernel", "shape": [3, 1, 192, 192], "dtype": "float32"}, {"name": "Block8_5_Branch_1_Conv2d_0c_3x1_BatchNorm/beta", "shape": [192], "dtype": "float32"}, {"name": "Block8_5_Branch_1_Conv2d_0c_3x1_BatchNorm/moving_mean", "shape": [192], "dtype": "float32"}, {"name": "Block8_5_Branch_1_Conv2d_0c_3x1_BatchNorm/moving_variance", "shape": [192], "dtype": "float32"}, {"name": "Block8_5_Conv2d_1x1/kernel", "shape": [1, 1, 384, 1792], "dtype": "float32"}, {"name": "Block8_5_Conv2d_1x1/bias", "shape": [1792], "dtype": "float32"}, {"name": "Block8_6_Branch_0_Conv2d_1x1/kernel", "shape": [1, 1, 1792, 192], "dtype": "float32"}, {"name": "Block8_6_Branch_0_Conv2d_1x1_BatchNorm/beta", "shape": [192], "dtype": "float32"}, {"name": "Block8_6_Branch_0_Conv2d_1x1_BatchNorm/moving_mean", "shape": [192], "dtype": "float32"}, {"name": "Block8_6_Branch_0_Conv2d_1x1_BatchNorm/moving_variance", "shape": [192], "dtype": "float32"}, {"name": "Block8_6_Branch_1_Conv2d_0a_1x1/kernel", "shape": [1, 1, 1792, 192], "dtype": "float32"}, {"name": "Block8_6_Branch_1_Conv2d_0a_1x1_BatchNorm/beta", "shape": [192], "dtype": "float32"}, {"name": "Block8_6_Branch_1_Conv2d_0a_1x1_BatchNorm/moving_mean", "shape": [192], "dtype": "float32"}, {"name": "Block8_6_Branch_1_Conv2d_0a_1x1_BatchNorm/moving_variance", "shape": [192], "dtype": "float32"}, {"name": "Block8_6_Branch_1_Conv2d_0b_1x3/kernel", "shape": [1, 3, 192, 192], "dtype": "float32"}, {"name": "Block8_6_Branch_1_Conv2d_0b_1x3_BatchNorm/beta", "shape": [192], "dtype": "float32"}, {"name": "Block8_6_Branch_1_Conv2d_0b_1x3_BatchNorm/moving_mean", "shape": [192], "dtype": "float32"}, {"name": "Block8_6_Branch_1_Conv2d_0b_1x3_BatchNorm/moving_variance", "shape": [192], "dtype": "float32"}, {"name": "Block8_6_Branch_1_Conv2d_0c_3x1/kernel", "shape": [3, 1, 192, 192], "dtype": "float32"}, {"name": "Block8_6_Branch_1_Conv2d_0c_3x1_BatchNorm/beta", "shape": [192], "dtype": "float32"}, {"name": "Block8_6_Branch_1_Conv2d_0c_3x1_BatchNorm/moving_mean", "shape": [192], "dtype": "float32"}, {"name": "Block8_6_Branch_1_Conv2d_0c_3x1_BatchNorm/moving_variance", "shape": [192], "dtype": "float32"}, {"name": "Block8_6_Conv2d_1x1/kernel", "shape": [1, 1, 384, 1792], "dtype": "float32"}, {"name": "Block8_6_Conv2d_1x1/bias", "shape": [1792], "dtype": "float32"}, {"name": "Bottleneck/kernel", "shape": [1792, 128], "dtype": "float32"}, {"name": "Bottleneck_BatchNorm/beta", "shape": [128], "dtype": "float32"}, {"name": "Bottleneck_BatchNorm/moving_mean", "shape": [128], "dtype": "float32"}, {"name": "Bottleneck_BatchNorm/moving_variance", "shape": [128], "dtype": "float32"}, {"name": "Conv2d_1a_3x3/kernel", "shape": [3, 3, 3, 32], "dtype": "float32"}, {"name": "Conv2d_1a_3x3_BatchNorm/beta", "shape": [32], "dtype": "float32"}, {"name": "Conv2d_1a_3x3_BatchNorm/moving_mean", "shape": [32], "dtype": "float32"}, {"name": "Conv2d_1a_3x3_BatchNorm/moving_variance", "shape": [32], "dtype": "float32"}, {"name": "Conv2d_2a_3x3/kernel", "shape": [3, 3, 32, 32], "dtype": "float32"}, {"name": "Conv2d_2a_3x3_BatchNorm/beta", "shape": [32], "dtype": "float32"}, {"name": "Conv2d_2a_3x3_BatchNorm/moving_mean", "shape": [32], "dtype": "float32"}, {"name": "Conv2d_2a_3x3_BatchNorm/moving_variance", "shape": [32], "dtype": "float32"}, {"name": "Conv2d_2b_3x3/kernel", "shape": [3, 3, 32, 64], "dtype": "float32"}, {"name": "Conv2d_2b_3x3_BatchNorm/beta", "shape": [64], "dtype": "float32"}, {"name": "Conv2d_2b_3x3_BatchNorm/moving_mean", "shape": [64], "dtype": "float32"}, {"name": "Conv2d_2b_3x3_BatchNorm/moving_variance", "shape": [64], "dtype": "float32"}, {"name": "Conv2d_3b_1x1/kernel", "shape": [1, 1, 64, 80], "dtype": "float32"}, {"name": "Conv2d_3b_1x1_BatchNorm/beta", "shape": [80], "dtype": "float32"}, {"name": "Conv2d_3b_1x1_BatchNorm/moving_mean", "shape": [80], "dtype": "float32"}, {"name": "Conv2d_3b_1x1_BatchNorm/moving_variance", "shape": [80], "dtype": "float32"}, {"name": "Conv2d_4a_3x3/kernel", "shape": [3, 3, 80, 192], "dtype": "float32"}, {"name": "Conv2d_4a_3x3_BatchNorm/beta", "shape": [192], "dtype": "float32"}, {"name": "Conv2d_4a_3x3_BatchNorm/moving_mean", "shape": [192], "dtype": "float32"}, {"name": "Conv2d_4a_3x3_BatchNorm/moving_variance", "shape": [192], "dtype": "float32"}, {"name": "Conv2d_4b_3x3/kernel", "shape": [3, 3, 192, 256], "dtype": "float32"}, {"name": "Conv2d_4b_3x3_BatchNorm/beta", "shape": [256], "dtype": "float32"}, {"name": "Conv2d_4b_3x3_BatchNorm/moving_mean", "shape": [256], "dtype": "float32"}, {"name": "Conv2d_4b_3x3_BatchNorm/moving_variance", "shape": [256], "dtype": "float32"}, {"name": "Mixed_6a_Branch_0_Conv2d_1a_3x3/kernel", "shape": [3, 3, 256, 384], "dtype": "float32"}, {"name": "Mixed_6a_Branch_0_Conv2d_1a_3x3_BatchNorm/beta", "shape": [384], "dtype": "float32"}, {"name": "Mixed_6a_Branch_0_Conv2d_1a_3x3_BatchNorm/moving_mean", "shape": [384], "dtype": "float32"}, {"name": "Mixed_6a_Branch_0_Conv2d_1a_3x3_BatchNorm/moving_variance", "shape": [384], "dtype": "float32"}, {"name": "Mixed_6a_Branch_1_Conv2d_0a_1x1/kernel", "shape": [1, 1, 256, 192], "dtype": "float32"}, {"name": "Mixed_6a_Branch_1_Conv2d_0a_1x1_BatchNorm/beta", "shape": [192], "dtype": "float32"}, {"name": "Mixed_6a_Branch_1_Conv2d_0a_1x1_BatchNorm/moving_mean", "shape": [192], "dtype": "float32"}, {"name": "Mixed_6a_Branch_1_Conv2d_0a_1x1_BatchNorm/moving_variance", "shape": [192], "dtype": "float32"}, {"name": "Mixed_6a_Branch_1_Conv2d_0b_3x3/kernel", "shape": [3, 3, 192, 192], "dtype": "float32"}, {"name": "Mixed_6a_Branch_1_Conv2d_0b_3x3_BatchNorm/beta", "shape": [192], "dtype": "float32"}, {"name": "Mixed_6a_Branch_1_Conv2d_0b_3x3_BatchNorm/moving_mean", "shape": [192], "dtype": "float32"}, {"name": "Mixed_6a_Branch_1_Conv2d_0b_3x3_BatchNorm/moving_variance", "shape": [192], "dtype": "float32"}, {"name": "Mixed_6a_Branch_1_Conv2d_1a_3x3/kernel", "shape": [3, 3, 192, 256], "dtype": "float32"}, {"name": "Mixed_6a_Branch_1_Conv2d_1a_3x3_BatchNorm/beta", "shape": [256], "dtype": "float32"}, {"name": "Mixed_6a_Branch_1_Conv2d_1a_3x3_BatchNorm/moving_mean", "shape": [256], "dtype": "float32"}, {"name": "Mixed_6a_Branch_1_Conv2d_1a_3x3_BatchNorm/moving_variance", "shape": [256], "dtype": "float32"}, {"name": "Mixed_7a_Branch_0_Conv2d_0a_1x1/kernel", "shape": [1, 1, 896, 256], "dtype": "float32"}, {"name": "Mixed_7a_Branch_0_Conv2d_0a_1x1_BatchNorm/beta", "shape": [256], "dtype": "float32"}, {"name": "Mixed_7a_Branch_0_Conv2d_0a_1x1_BatchNorm/moving_mean", "shape": [256], "dtype": "float32"}, {"name": "Mixed_7a_Branch_0_Conv2d_0a_1x1_BatchNorm/moving_variance", "shape": [256], "dtype": "float32"}, {"name": "Mixed_7a_Branch_0_Conv2d_1a_3x3/kernel", "shape": [3, 3, 256, 384], "dtype": "float32"}, {"name": "Mixed_7a_Branch_0_Conv2d_1a_3x3_BatchNorm/beta", "shape": [384], "dtype": "float32"}, {"name": "Mixed_7a_Branch_0_Conv2d_1a_3x3_BatchNorm/moving_mean", "shape": [384], "dtype": "float32"}, {"name": "Mixed_7a_Branch_0_Conv2d_1a_3x3_BatchNorm/moving_variance", "shape": [384], "dtype": "float32"}, {"name": "Mixed_7a_Branch_1_Conv2d_0a_1x1/kernel", "shape": [1, 1, 896, 256], "dtype": "float32"}, {"name": "Mixed_7a_Branch_1_Conv2d_0a_1x1_BatchNorm/beta", "shape": [256], "dtype": "float32"}, {"name": "Mixed_7a_Branch_1_Conv2d_0a_1x1_BatchNorm/moving_mean", "shape": [256], "dtype": "float32"}, {"name": "Mixed_7a_Branch_1_Conv2d_0a_1x1_BatchNorm/moving_variance", "shape": [256], "dtype": "float32"}, {"name": "Mixed_7a_Branch_1_Conv2d_1a_3x3/kernel", "shape": [3, 3, 256, 256], "dtype": "float32"}, {"name": "Mixed_7a_Branch_1_Conv2d_1a_3x3_BatchNorm/beta", "shape": [256], "dtype": "float32"}, {"name": "Mixed_7a_Branch_1_Conv2d_1a_3x3_BatchNorm/moving_mean", "shape": [256], "dtype": "float32"}, {"name": "Mixed_7a_Branch_1_Conv2d_1a_3x3_BatchNorm/moving_variance", "shape": [256], "dtype": "float32"}, {"name": "Mixed_7a_Branch_2_Conv2d_0a_1x1/kernel", "shape": [1, 1, 896, 256], "dtype": "float32"}, {"name": "Mixed_7a_Branch_2_Conv2d_0a_1x1_BatchNorm/beta", "shape": [256], "dtype": "float32"}, {"name": "Mixed_7a_Branch_2_Conv2d_0a_1x1_BatchNorm/moving_mean", "shape": [256], "dtype": "float32"}, {"name": "Mixed_7a_Branch_2_Conv2d_0a_1x1_BatchNorm/moving_variance", "shape": [256], "dtype": "float32"}, {"name": "Mixed_7a_Branch_2_Conv2d_0b_3x3/kernel", "shape": [3, 3, 256, 256], "dtype": "float32"}, {"name": "Mixed_7a_Branch_2_Conv2d_0b_3x3_BatchNorm/beta", "shape": [256], "dtype": "float32"}, {"name": "Mixed_7a_Branch_2_Conv2d_0b_3x3_BatchNorm/moving_mean", "shape": [256], "dtype": "float32"}, {"name": "Mixed_7a_Branch_2_Conv2d_0b_3x3_BatchNorm/moving_variance", "shape": [256], "dtype": "float32"}, {"name": "Mixed_7a_Branch_2_Conv2d_1a_3x3/kernel", "shape": [3, 3, 256, 256], "dtype": "float32"}, {"name": "Mixed_7a_Branch_2_Conv2d_1a_3x3_BatchNorm/beta", "shape": [256], "dtype": "float32"}, {"name": "Mixed_7a_Branch_2_Conv2d_1a_3x3_BatchNorm/moving_mean", "shape": [256], "dtype": "float32"}, {"name": "Mixed_7a_Branch_2_Conv2d_1a_3x3_BatchNorm/moving_variance", "shape": [256], "dtype": "float32"}]}]}